models/xArm6Reach-v1/model.pt (torch, 547579 bytes, 8 tensors)

fc1.weight f4 [256, 13]
000000 e3 e1 b4 bd 23 29 cd bc 71 34 d7 bc b9 74 16 be
       -0.08832147 -0.02504403 -0.026270123 -0.14692964
000010 71 3b 64 3e fb cd 06 bd b2 c2 dd bc 67 85 a3 bd
       0.222883 -0.032911282 -0.027070377 -0.07984429
000020 0f b2 73 be a1 34 fc 3e 56 34 de 3d 2d 1f 1b bd
       -0.23798393 0.49258903 0.10849826 -0.03787153
000030 fe bc b3 bd ac 66 3e be 01 d8 53 3e 3c bc 2d be
       -0.08776282 -0.18593854 0.20687868 -0.16966337
000040 69 4d b9 bc 58 0e f2 3e a5 3c 33 3e b0 44 55 3e
       -0.02261992 0.47276568 0.17503603 0.20826983
000050 2f df 28 bd a5 e0 0f bf 12 9c 36 3f f3 0f 11 3d
       -0.04122847 -0.56202155 0.71331894 0.0354156
000060 b7 72 3d 3d 5a 7a 12 3e d5 97 31 be 89 c8 1c bc
       0.04625198 0.14304486 -0.17343076 -0.009569296
000070 f0 48 0b 3e e1 89 a4 bd b1 92 ef bc 17 d4 82 bd
       0.13602042 -0.08034111 -0.029244753 -0.06388109
000080 2e 9d ed 3d ff e3 cb 3e 42 3d eb bd cb 50 a5 be
       0.11602245 0.39822385 -0.114862934 -0.32288203
000090 c8 15 5c bc 95 3a bc bc 7e 3c 9e 3c f1 83 67 40
       -0.013432927 -0.022977153 0.019315954 3.617428
0000a0 38 cf a7 3d ad a1 93 3f 20 6d 88 3f f5 58 c0 bf
       0.08193821 1.1533715 1.0658302 -1.5027148
0000b0 77 44 50 3d 06 6a 03 3d d2 9c 80 3c 97 4c f4 3f
       0.050846543 0.032083534 0.015699778 1.9085873
0000c0 2c 53 19 c0 cb c5 4c c0 6d 2a 55 bf 6f 44 86 bf
       -2.3957014 -3.1995723 -0.8326786 -1.0489634
0000d0 35 a6 4d be da cf cd be 9f 38 cf be a5 17 ea be
       -0.20082934 -0.4019764 -0.40472886 -0.45721164
0000e0 aa da 4e 3e 52 d3 77 be 4c 1e 41 bd f7 5d 41 be
       0.20200601 -0.24201706 -0.047148034 -0.18883501
0000f0 65 b6 e4 3e cb b3 cb be 24 83 9e 3e af 06 ff 3e
       0.44670406 -0.3978561 0.30959427 0.49809787
000100 c5 b0 bc 3e 1b 2a 5a be e4 40 31 bd 88 7d ef bd
       0.36853614 -0.21305124 -0.043274775 -0.11693865
000110 39 ec df bd 74 6f a8 bb bf 17 38 3c 67 e3 6c bd
       -0.10933728 -0.0051402394 0.01123613 -0.057834055
000120 c4 bb 4f bd 81 2c fd bd cc a8 99 3e 40 29 df 3d
       -0.050716177 -0.12362004 0.30011594 0.1089654
000130 56 ae 9d 3c 68 15 6d 3d f0 f0 e8 3f b8 0a 1c be
       0.019248169 0.057881743 1.8198528 -0.15238464
000140 a0 94 84 bf a6 69 c5 c0 98 83 c5 40 ab ce 08 3f
       -1.0357857 -6.1691465 6.1723137 0.5344035
000150 88 9c 9c be 2a e5 b8 bd db 7f 10 40 56 30 18 c0
       -0.30588174 -0.090280846 2.2578037 -2.3779502
000160 51 f1 21 c0 bb ce 42 3e bf d8 33 3e 16 3a 6b be
       -2.5303538 0.19024174 0.17563151 -0.22971377
000170 27 ec 0f be 04 ce 09 be 31 85 89 3e bc be 4e 3e
       -0.14054929 -0.13457495 0.2685943 0.20189947
000180 d7 05 a3 bd 3e d4 0c be cc b0 a6 3d a7 0a b0 be
       -0.07960098 -0.13752839 0.0813919 -0.34383127
000190 57 62 9a 3e 53 26 de bc 8a 6e 28 3b 4e 26 97 3d
       0.30153152 -0.027117884 0.0025700652 0.07380353
0001a0 a7 7d 2e 40 66 e2 8c c0 ee 31 42 bf aa 50 55 c0
       2.7264192 -4.4026365 -0.75857437 -3.3330483
0001b0 2d 7e 6f 40 1a 3f 7a 3d c0 29 a5 bd 66 04 7b bd
       3.7420762 0.061095335 -0.08064604 -0.06128349
0001c0 ea 63 3d c0 8c af 44 40 e4 1b 1a c0 25 3c 9c 40
       -2.9592233 3.0732145 -2.4079523 4.882342
0001d0 bc a9 4d 3f 26 32 e7 3c 43 f2 9a 3d e3 55 bb bd
       0.8033712 0.028222155 0.07565739 -0.09147241
0001e0 ce 44 f6 bc 04 5e 34 3e 8d 24 79 3c 76 54 c0 bd
       -0.030062106 0.17613989 0.015206468 -0.0939111
0001f0 62 19 5d be 7b 5c b2 3c 14 d2 38 be 95 53 c3 bd
       -0.21591714 0.021772614 -0.18048888 -0.095374264
000200 ff 3e 96 3d 54 32 9a 3e e2 1b b4 be e0 83 9c be
       0.07336234 0.30116522 -0.35177523 -0.30569363
000210 ec 8c 02 bf e5 12 22 3f 99 e1 2a be 3a 01 58 3c
       -0.5099628 0.6331008 -0.16687621 0.013183886
000220 c1 fd 61 3d dd f3 34 be ba 4d 25 be 80 64 85 3e
       0.05517364 -0.17671151 -0.16142932 0.26053238
000230 f2 1e 2d 3f bb 87 e4 3e f9 98 9b 3e 26 2a 47 be
       0.67625344 0.44634804 0.30390146 -0.19449672
000240 51 4a 26 3f 7c 59 0e 3e b3 2f d3 be cd 4c b7 3e
       0.6495715 0.13901323 -0.4124733 0.35800782
000250 7a 9c 34 bd 6a 4d 8c 3d ff 5b 02 be 1d 30 e6 bd
       -0.04409454 0.06850703 -0.12730406 -0.11239646
000260 30 7e 35 3e 01 01 ba 3e 31 1a 9d bf d7 ff 03 3d
       0.17723918 0.3632889 -1.2273618 0.03222641
000270 2f 83 92 bd 6c 08 b1 3e b9 62 96 be b8 d6 21 be
       -0.071539275 0.34576738 -0.29372194 -0.15804565
000280 10 48 8e 3e cd fb 73 3e 5f 4e 8c be e5 3b 85 bd
       0.27789354 0.23826523 -0.27403542 -0.065055646
000290 e5 ad 3d 3f 43 9b 25 bf 4c 80 aa bd eb cb ae bd
       0.74093467 -0.64690036 -0.08325252 -0.08534988
0002a0 ae c5 09 3e e6 56 3f bf 34 92 8f 3f f5 e2 cb bf
       0.13454315 -0.7474197 1.1216493 -1.5928637
0002b0 7b 35 ef be 43 2b 35 3f 04 82 4e 3d 06 7f 49 bd
       -0.4672049 0.7076914 0.05041696 -0.049193405
0002c0 3d c0 24 3d 5a ed ba c0 78 38 bf 40 6e 1b 0d 3f
       0.040222395 -5.8414736 5.975643 0.5511998
0002d0 e6 fc e6 bf 22 7d fe 3f 59 d1 19 bf 5f d7 0b bd
       -1.8045928 1.9881938 -0.60085064 -0.03414094
0002e0 27 21 24 bd 5f 63 56 be 2a c3 0a be f1 ef 7b bd
       -0.04007068 -0.20936345 -0.13551012 -0.061508123
0002f0 e0 cb 0a be 85 9e 16 be ad 7e c5 bf e9 7a b9 3f
       -0.13554335 -0.14708908 -1.5429283 1.4490634
000300 a7 f6 5d 3f e7 a7 8d 3e 6e db 8c 3e f2 55 1f 40
       0.86704487 0.27667162 0.27511162 2.4896207
000310 07 7a e8 3f 23 8e 61 bf 41 9e 8a 3f 81 06 3f bf
       1.816224 -0.8810751 1.0829545 -0.746193
000320 72 6b 1a 3d 95 e1 09 3d 18 37 15 bd c3 7c a5 c0
       0.037700124 0.033662397 -0.036429495 -5.1714797
000330 7e 59 ae 40 8a f3 16 c0 2a 29 0f c0 5e 3f b3 3f
       5.4484243 -2.3586144 -2.2368875 1.4003713
000340 bc d5 b0 3f 59 4c 1c 40 27 db e2 3e 9f 3b 0b 3d
       1.3815227 2.44216 0.44307825 0.033992406
000350 7c 59 8b 3e ca e4 3e 3e 86 b0 84 3e 80 05 14 be
       0.2721671 0.18641964 0.25915927 -0.14455223
000360 39 2b 42 40 f4 c0 48 c0 6e 61 34 bf e8 37 04 c0
       3.033888 -3.136777 -0.70461166 -2.0659122
000370 b6 30 df bf 43 9f 29 bd 3a af b3 3e 8e e6 03 be
       -1.743674 -0.04141165 0.35094625 -0.12880918
000380 a8 aa 06 3e 8f bf a3 3c 5c cd f6 3d 7f ff 80 be
       0.13151038 0.019988803 0.12050888 -0.25194928
000390 ee fa 93 be df f0 cb be 28 a4 23 3f 30 ff 45 bd
       -0.28902382 -0.39832208 0.6392236 -0.04833907
0003a0 08 02 11 bb 2f 01 56 3e 22 a9 a3 bf c8 05 74 bf
       -0.0022126455 0.20898889 -1.278599 -0.9532132
0003b0 4e c3 fe 3e 6c 35 54 40 bd e8 64 c0 1d 12 20 bd
       0.4975838 3.3157606 -3.5767052 -0.039079774
0003c0 10 e5 59 3d f7 6b 0c bf af 50 b5 bf 54 42 b4 3f
       0.053196967 -0.5485224 -1.4165248 1.4082742
0003d0 c4 4a 07 3d 06 76 85 3f 27 50 9c 3e 66 c6 11 bf
       0.033030286 1.0426643 0.305299 -0.56943357
0003e0 91 27 d8 bf 42 2f 08 3f 3e 17 e1 be 12 19 d2 3e
       -1.6887075 0.5319711 -0.43963045 0.41034752
0003f0 75 6f a3 bc 48 36 14 be b2 93 8a 3d 96 5e 56 40
       -0.019950608 -0.14473832 0.06766452 3.349523

fc1.bias f4 [256]
000000 58 d9 69 bf 33 da ea bf 20 98 d1 bf 18 2c 08 c0
       -0.91347265 -1.8347839 -1.637455 -2.1276913
000010 f9 1b 57 c0 1d 7b 70 bf 15 db 54 c0 7d 6c 11 c0
       -3.3610823 -0.93937856 -3.3258717 -2.2722466
000020 4c 5b 95 bf 4c 9c 16 c0 78 9d 5b c0 93 cb 8d c0
       -1.1668487 -2.3532896 -3.4314861 -4.4311004
000030 16 f7 20 c0 71 d2 cb bf 11 a1 88 c0 16 cd 82 c0
       -2.515081 -1.5923597 -4.2696614 -4.087535
000040 f8 d0 a6 c0 3b a3 29 c0 ce 20 cd c0 65 8c 99 c0
       -5.213009 -2.6505878 -6.4102545 -4.798388
000050 66 c2 09 c0 cc 41 a6 bf b1 b7 0c c0 9b 6b ae bf
       -2.1524901 -1.298883 -2.1987116 -1.3626589
000060 1b 91 31 c0 24 c2 e4 bf c1 a4 9c c0 49 1d 7d bf
       -2.7744815 -1.7871747 -4.8951116 -0.9887281
000070 60 d6 fd bf d6 04 83 c0 ea aa e9 bf b7 c5 7b c0
       -1.9831047 -4.0943403 -1.8255284 -3.9339426
000080 1c ba 3c c0 e8 01 84 c0 36 45 08 c0 5d e1 dc bf
       -2.9488592 -4.1252327 -2.1292243 -1.7256275
000090 d9 b3 ce c0 17 60 e4 bf 3a e1 01 c0 e4 9f 1d c0
       -6.459454 -1.7841824 -2.0293717 -2.462884
0000a0 5e ef 23 c0 9c 27 67 c0 f3 bd f5 bf 92 44 60 bf
       -2.5614848 -3.6117926 -1.9198593 -0.8760463
0000b0 15 8c 89 c0 20 5b 5e c0 f3 91 81 c0 6a 04 f5 bf
       -4.29835 -3.4743118 -4.049066 -1.9141972
0000c0 d2 0f 39 c0 80 cc 07 c0 3d 7d 2d c0 9e 07 a2 c0
       -2.8915906 -2.1218567 -2.710769 -5.06343
0000d0 e4 60 22 c0 a7 75 d2 bf 0d e4 ca bf 9f 3e 8c bf
       -2.5371637 -1.6442155 -1.5850846 -1.095661
0000e0 b5 a0 b3 bf 77 61 fe bf 65 84 32 c0 86 72 0e c0
       -1.4033419 -1.9873494 -2.7893307 -2.22574
0000f0 a0 a3 a0 c0 7c 5a 08 c0 94 50 f7 bf 8d a8 a5 bf
       -5.0199738 -2.1305227 -1.9321465 -1.2942063
000100 e4 87 23 bf 94 a3 06 c0 0c 09 29 c0 d4 5a 95 3f
       -0.6387923 -2.103734 -2.6411772 1.1668344
000110 eb 9b 93 bf d4 be c9 c0 94 93 c0 c0 62 de 00 c0
       -1.1531957 -6.3045444 -6.018015 -2.0135732
000120 50 15 91 c0 37 5e f5 bf c9 e7 07 c0 86 0d 45 c0
       -4.5338516 -1.9169377 -2.123522 -3.0789504
000130 35 be f8 bf bc c4 dc bf 61 4f aa bf 05 23 d8 bf
       -1.9433047 -1.7247539 -1.3305475 -1.6885687
000140 a7 ee df bf af 48 31 c0 b4 a2 ec bf fe 07 14 c0
       -1.7494706 -2.7700613 -1.8487153 -2.3129878
000150 6d 7b 53 c0 05 ce 03 c0 bd c5 5e bf db 7d 22 c0
       -3.3044083 -2.0594494 -0.87020475 -2.5389316
000160 d4 cb 12 c0 9b 10 bc bf 06 1d 15 c0 49 db 09 c0
       -2.2936907 -1.4692568 -2.3298965 -2.154009
000170 98 b1 e2 bf 8e e7 b5 c0 e1 60 1e c0 59 16 14 c0
       -1.7710447 -5.684516 -2.474663 -2.313864
000180 f7 88 da bf 6c e3 93 c0 0b 9d 31 c0 db a0 35 c0
       -1.7073048 -4.6215115 -2.7752101 -2.8379428
000190 42 ce 57 bf cc 04 96 bf df 90 01 c0 73 dc 28 c0
       -0.842991 -1.1720214 -2.0244672 -2.6384552
0001a0 5e 70 2f 3f dc 0d 6d c0 6c 7d 00 c0 b4 67 67 c0
       0.68530834 -3.703971 -2.0076551 -3.6157045
0001b0 46 cc 20 c0 f8 3e 3b c0 17 21 45 c0 6c 0a 0d c0
       -2.5124679 -2.9257183 -3.0801446 -2.203761
0001c0 5b 46 a7 c0 07 18 e1 bf b1 c9 ba bf 76 9b 8a c0
       -5.2273383 -1.7585458 -1.4592801 -4.331477
0001d0 76 d2 37 c0 c2 d3 81 c0 97 b8 76 c0 b2 a0 e2 bf
       -2.8722205 -4.0570993 -3.8550165 -1.770529
0001e0 a4 04 f4 bf fe c0 1e c0 be e7 9b c0 6e c2 79 bf
       -1.9063916 -2.4805293 -4.872039 -0.975623
0001f0 81 42 2d bf 13 f7 51 c0 5b eb a9 bf 8f f5 c3 bf
       -0.676796 -3.2807052 -1.327495 -1.5309314
000200 c1 b5 02 c0 cd 85 25 c0 dc b0 83 c0 b6 26 76 c0
       -2.0423434 -2.5862916 -4.1153393 -3.8461127
000210 31 35 a6 c0 19 b6 b6 bf e5 8d 26 c0 9d 0f 1a c0
       -5.193993 -1.4274322 -2.6024106 -2.407203
000220 2c e1 91 c0 93 8b 0b c0 a2 b3 1e c0 fc 32 22 c0
       -4.558737 -2.180394 -2.479714 -2.5343618
000230 25 e1 00 c0 2f c7 24 c0 e9 00 4c c0 3f 7c 2c c0
       -2.0137417 -2.5746572 -3.1875556 -2.6950834
000240 6b 42 5c c0 3b 9d 49 c0 2d 3b 2f c0 09 e1 f1 be
       -3.4415538 -3.1502216 -2.7379868 -0.47242
000250 2d 6f 01 c0 60 99 b7 bf fe 15 11 bf bd 63 2d c0
       -2.0224106 -1.4343681 -0.5667418 -2.7092125
000260 35 fb f7 bf b7 92 f4 bf d9 67 02 c0 17 34 ab bf
       -1.9373537 -1.9107274 -2.0375884 -1.3375272
000270 0e db 55 c0 00 4b 8f bf b7 80 e6 bf b2 88 96 c0
       -3.341495 -1.1194763 -1.8008031 -4.7041864
000280 b9 83 72 c0 c0 40 25 c0 14 06 49 3f b0 09 ba bf
       -3.7892897 -2.582077 0.785249 -1.4534206
000290 df b9 b4 bf e6 a8 a0 bf f2 e0 98 bf 60 38 a0 bf
       -1.4119223 -1.2551544 -1.1943648 -1.2517204
0002a0 07 85 8e c0 b0 9e 26 c0 7a 8f d6 bf 57 72 da bf
       -4.4537387 -2.6034355 -1.6762536 -1.7066144
0002b0 27 ce f2 bf 78 52 cf bf fa 91 41 c0 06 ca ba bf
       -1.8969163 -1.6197042 -3.0245347 -1.4592903
0002c0 a3 82 b9 bf be 97 3b c0 66 c2 6f c0 ed 40 0a bf
       -1.4492992 -2.9311366 -3.7462401 -0.5400532
0002d0 48 17 0a c0 45 3d 76 c0 ec 82 9c c0 36 03 3c c0
       -2.157671 -3.8474896 -4.8909817 -2.937696
0002e0 7e 15 d3 bf 81 22 d0 bf df ff a1 c0 73 02 57 bf
       -1.6490934 -1.626053 -5.0624843 -0.8398811
0002f0 85 41 0f c0 cc 48 27 c0 a4 3a 2a bf 69 71 99 c0
       -2.238374 -2.6138182 -0.6649573 -4.795094
000300 57 b5 90 c0 70 2c 3b c0 ec 82 e3 bf e7 b2 11 c0
       -4.522136 -2.9245872 -1.7774329 -2.2765443
000310 6f 73 cf bf 63 59 9b c0 7c 51 26 c0 a0 9d 10 c0
       -1.6207103 -4.8546615 -2.5987234 -2.2596207
000320 d2 d2 f6 3f 68 f3 15 c0 f0 80 4e c0 5b 04 ca bf
       1.9283087 -2.3429813 -3.2266197 -1.5782579
000330 11 df 0b c0 4d 60 03 c0 16 5e d8 bf 66 a4 24 c0
       -2.18549 -2.0527527 -1.6903713 -2.572534
000340 58 c8 14 c0 00 55 00 c0 9a dc a4 c0 fe 2d de bf
       -2.324728 -2.005188 -5.151929 -1.7357786
000350 f4 42 c9 bf a4 af 1c c0 bf 4c e3 bf 33 b6 2d c0
       -1.5723557 -2.4482203 -1.7757796 -2.7142456
000360 c3 ff a7 bf 02 7f 06 c0 06 f5 5d c0 d7 71 d8 bf
       -1.3124927 -2.101502 -3.46808 -1.6909741
000370 9c 0e df bf 7e 24 74 c0 1f 72 10 c0 b8 86 28 c0
       -1.7426333 -3.8147273 -2.2569654 -2.6332226
000380 fc 88 ee 3d d6 27 07 c0 bb 98 ee bf bf e0 2b c0
       0.116472214 -2.1118064 -1.864036 -2.6855924
000390 83 60 1d c0 b3 04 0e c0 e6 75 26 c0 87 08 e9 bf
       -2.4590156 -2.2190368 -2.600946 -1.8205727
0003a0 72 f5 06 c0 43 69 4a c0 25 64 15 c0 fc 3f ea bf
       -2.1087308 -3.1626747 -2.3342373 -1.8300776
0003b0 3c c9 25 c0 84 9d 27 c0 c8 99 17 c0 f2 1d 09 40
       -2.5904074 -2.618989 -2.368761 2.1424527
0003c0 f9 a8 31 c0 98 f5 61 c0 12 b7 9e bf 6d e0 c0 bf
       -2.7759383 -3.5306149 -1.2399619 -1.5068489
0003d0 d4 c5 cd bf da eb 2c c0 59 3d c9 bc a4 32 96 c0
       -1.6075997 -2.7018952 -0.024565386 -4.6936817
0003e0 8f 4d 36 c0 97 d8 58 bf 11 8d 7e c0 67 2b 55 c0
       -2.8484838 -0.8470549 -3.97736 -3.330774
0003f0 79 39 1f c0 8a 19 b6 bf 3e 55 03 bf be 5a 46 c0
       -2.4878829 -1.4226544 -0.51301944 -3.0992885

fc2.weight f4 [256, 256]
000000 99 5f 84 3c 28 af 9c bc 04 29 7d bd ee 81 a3 bd
       0.016158866 -0.01912649 -0.061806694 -0.079837665
000010 d1 55 d5 bd 48 66 b2 bd ee ac d3 bd d4 1b 93 bd
       -0.10416759 -0.08710915 -0.10335718 -0.07183042
000020 3f a6 02 be d8 13 a3 bd fb 38 f9 bd 11 5b 1d bd
       -0.1275873 -0.07962769 -0.12169071 -0.038416926
000030 cb 52 4a bd c4 0a df bd 51 fb 85 bd 43 25 4e bd
       -0.049395364 -0.10890725 -0.065420754 -0.050328504
000040 bd 39 d2 3c ea 4d 0e be 8f 62 9e bd 78 69 91 bd
       0.025662297 -0.1389691 -0.07733642 -0.07100195
000050 0d 04 ef bd 05 32 84 bd 3a ee c8 bd dd 1a a8 3d
       -0.116706945 -0.06454853 -0.09811063 0.08208249
000060 3c 7c 40 bc 71 4c af bd c4 c0 d0 bd 08 d4 ad bd
       -0.01174837 -0.08559502 -0.10193017 -0.084877074
000070 99 6e 59 bd 38 7a a5 bd de 17 78 bd fa af 94 bd
       -0.05308399 -0.08079952 -0.060569637 -0.07260127
000080 e6 26 d2 bb 68 e3 5f bd 49 a4 30 bd 3c 17 a8 bd
       -0.0064133285 -0.05466023 -0.043125425 -0.082075566
000090 b0 c5 b8 bd 60 9e 2d bc 30 bd cb 39 ab eb d1 bd
       -0.09022081 -0.010596842 0.00038860133 -0.10250028
0000a0 0d 1e ed bc 30 77 b3 bd 17 af f3 bd ba 1f 21 3c
       -0.028944993 -0.087629676 -0.1189863 0.009834224
0000b0 db d3 a2 bc 75 07 cd bd a4 70 a2 bd b6 7d 7d bc
       -0.019876411 -0.10011188 -0.07931641 -0.015471866
0000c0 dd 16 aa bd 07 80 a7 bd 27 73 35 bd 0b 6b 58 bd
       -0.08305142 -0.08178716 -0.04429927 -0.05283646
0000d0 9d aa b7 bd 31 a7 4c bd f1 42 9d bc a0 89 f2 bd
       -0.08968089 -0.049964134 -0.01919696 -0.11842656
0000e0 ca a5 93 bd 8e c7 a4 bd 76 b1 d9 bd 42 aa e6 bd
       -0.07209356 -0.080458745 -0.10629551 -0.11262943
0000f0 92 1b 1c bd e1 02 b1 39 34 81 0a bd 6b db b7 bd
       -0.03811223 0.00033762216 -0.033814624 -0.089773975
000100 3a d7 ae 3b ac 40 cf bc b7 d7 89 bd 32 4e a2 bc
       0.0053357156 -0.025299393 -0.067305975 -0.019812677
000110 b2 44 98 bd 86 3d d8 bd 02 67 4b bd 09 19 50 bd
       -0.074349776 -0.1055861 -0.049658783 -0.050805125
000120 f9 51 68 b7 b1 a3 bc bc 3d b3 87 bd 1d e7 d6 bd
       -1.3847363e-05 -0.023027273 -0.06625984 -0.104933
000130 4f 76 ab bd f6 46 0e 3c 56 7f f4 3d 1b 70 8b bd
       -0.08372175 0.008683911 0.1193835 -0.06808492
000140 5f 47 bd 3c b2 f4 2f bd 67 f6 bd bd 26 41 8b bd
       0.023105321 -0.04295797 -0.09275513 -0.067995355
000150 b1 20 ff bd 96 72 01 be c0 84 83 bd 81 81 ad bd
       -0.12457407 -0.12641367 -0.064218044 -0.084719665
000160 1a fa b0 bd c0 8e ca bd 4c 41 19 bd e1 e5 17 bd
       -0.08641453 -0.09890509 -0.037415788 -0.037084464
000170 95 b7 3c bd bf f1 30 bd 0d d6 46 bd 83 5d 71 bd
       -0.046073515 -0.043199297 -0.04854398 -0.05892707
000180 e0 bc 9f bd 05 74 87 bc 8c 2d ff bd b9 0c 9e 3c
       -0.07799697 -0.016534815 -0.12459859 0.019293176
000190 f6 3a 55 bd 42 7d 80 bd d6 0d 37 bc 79 41 7f bd
       -0.052058183 -0.06273891 -0.011172732 -0.0623183
0001a0 64 bb e0 bd b0 d5 1d bd 21 0a c1 bd a9 70 36 bc
       -0.10973242 -0.038533866 -0.0942576 -0.011135259
0001b0 77 7f ba 3d 7e b1 94 bd 5e b0 d7 bc eb d6 7a bd
       0.09106343 -0.072604164 -0.026329216 -0.061240118
0001c0 f5 30 23 bc 94 bb a5 bd b1 3d a9 bd 09 5a d4 bc
       -0.009960403 -0.08092418 -0.0826372 -0.025921838
0001d0 c1 bf 51 3b df 80 33 bd 28 35 13 bd fe 4a 99 bd
       0.0032005163 -0.043824073 -0.035939366 -0.07485007
0001e0 ed dd bf 3c f5 1b 3e bd 4f e1 02 be ce 95 ab bd
       0.023421252 -0.04641338 -0.12781261 -0.08378182
0001f0 e3 98 8c ba 3a 08 85 bd 89 22 47 bd 0e 06 c9 bd
       -0.0010726716 -0.0649571 -0.04861692 -0.09815608
000200 89 88 b0 bd 1c bd ed bd 1b b8 ac bd d5 c5 f4 bd
       -0.08619792 -0.116083354 -0.08433553 -0.11951796
000210 8b 8b 9e bd 0f 93 49 bd d3 e7 e7 bd 5c 8b bb bd
       -0.077414595 -0.04921251 -0.11323514 -0.0915744
000220 6f ec 04 be 10 d8 79 bd 98 9c bb bd 1c 7d 8d bd
       -0.12980817 -0.06099707 -0.09160727 -0.06908628
000230 32 82 cd bc 91 9f c5 bd 81 4c ac bc 99 48 07 be
       -0.025086496 -0.096495755 -0.021032574 -0.13211288
000240 bc 59 b3 3b 2a a2 b9 bd c0 4c aa bd a3 9b 65 bb
       0.0054733437 -0.090641335 -0.0831542 -0.0035035394
000250 35 a8 b9 bb 34 f7 80 bd 84 cf 04 bd b9 66 2d bd
       -0.005665804 -0.0629715 -0.032424465 -0.042334292
000260 44 41 fa bd 9c 2f 65 ba 64 a7 72 bc 71 68 39 bb
       -0.1221948 -0.0008742751 -0.014810417 -0.0028291012
000270 d7 9d f8 bd 94 db ec bd 34 78 60 3b 98 c6 80 bc
       -0.121394806 -0.11565319 0.0034251334 -0.015719697
000280 aa 16 12 bd 4d c0 16 bc b7 5b c7 bd 70 a9 f6 bd
       -0.035666145 -0.0092011215 -0.0973429 -0.120440364
000290 09 71 27 bd fb 70 8f bd 15 b1 99 bb 5f 61 a2 bc
       -0.040879283 -0.07003971 -0.0046902993 -0.01982182
0002a0 3c 34 b2 3d 95 19 a7 bd 87 3e 7a bd 4a a4 51 3d
       0.08701369 -0.08159176 -0.061094787 0.05118207
0002b0 97 76 c1 bd f6 1a b0 bd 0e 08 b8 bd 08 0f df bd
       -0.09446447 -0.085988924 -0.08985911 -0.10891539
0002c0 a4 52 93 bc e6 45 e3 bd c0 02 05 bc ef 05 b1 bb
       -0.017983742 -0.110973164 -0.008118331 -0.0054023187
0002d0 7f 58 ba 3c b2 36 bf bc e8 2e d3 bd f2 db b2 bd
       0.022747276 -0.02334151 -0.10311681 -0.087333575
0002e0 55 08 f2 bc b8 6c d7 bd 93 be dc bd 65 27 13 bd
       -0.029544989 -0.10518783 -0.10778537 -0.03592624
0002f0 b0 1c f1 bc 08 4a 7b bc 8a 56 20 bd ae 95 d5 bd
       -0.029432625 -0.015337475 -0.03914503 -0.1042894
000300 bc 0b 08 be 94 79 af bd 0f 17 78 3c f9 1d 98 3c
       -0.13285726 -0.08568111 0.015142216 0.01856898
000310 b4 f8 dc bd 5f ae b8 bd 1f 4a 80 bd 51 e9 2c bd
       -0.10789624 -0.09017634 -0.062641375 -0.042214695
000320 7a b1 b3 bd 62 6d 4d bd e7 38 06 3d 76 2a a0 bd
       -0.08774085 -0.050153144 0.03276911 -0.07820599
000330 9b 06 5a bc 25 31 10 bd 0d 9e 25 3c 3e 7b 34 bc
       -0.013307239 -0.035203118 0.010108483 -0.011015711
000340 4f 6a aa bd dd ba 16 be 05 85 bd bd 64 95 f3 bd
       -0.08321058 -0.1471972 -0.09253887 -0.118937284
000350 ad 94 ef bd c1 ea d3 bd 21 6a ef bd 47 d8 df bd
       -0.116982795 -0.1034751 -0.11690164 -0.109299235
000360 0d e9 6f bd b2 79 70 bd 1a b6 34 bd c7 02 36 bd
       -0.058571864 -0.058709808 -0.044118978 -0.044436242
000370 46 7d 83 bd cf 45 af bd 83 44 d0 bd 28 c7 e7 bd
       -0.064203784 -0.08558237 -0.101693176 -0.11317283
000380 93 d3 9d bc fc 04 c5 3c e6 84 c6 bb ae 41 6a bd
       -0.019265926 0.024050228 -0.006058323 -0.057191543
000390 c7 a3 d3 bd af 46 48 3b 9d db f0 bd f6 9d eb 3a
       -0.103339724 0.0030559709 -0.11760638 0.0017976153
0003a0 e1 f4 52 bd c2 7a 24 bd 6b b9 2f b9 20 a5 b6 bc
       -0.051503066 -0.040156133 -0.00016758374 -0.022295535
0003b0 73 d6 23 bd 12 ea 7c bc 42 c1 5b bd dd 8f 9f bd
       -0.039999437 -0.015436666 -0.053651102 -0.077911116
0003c0 03 3c 39 3c 05 b8 d3 bd ae dd 99 3c 37 e1 8e bd
       0.011305812 -0.10337833 0.018782463 -0.0697655
0003d0 bb 4e ec bc 68 fc 36 3d cc bb a6 bd 2e e7 e3 bd
       -0.028846135 0.044674307 -0.08141288 -0.111280784
0003e0 49 5d fc bd 75 a5 cb bd 27 af 2b bd 4d 15 c5 bd
       -0.1232248 -0.09943668 -0.041915085 -0.096232034
0003f0 39 fe ef 3c fa c2 c7 bd ac a2 b8 bc 4b b9 40 bd
       0.029296027 -0.09753986 -0.022538505 -0.04705171

fc2.bias f4 [256]
000000 cc f8 e8 bd 8d 9d d0 bd 21 99 8e bd 1e 7a c0 bd
       -0.11375579 -0.101863004 -0.06962801 -0.09398292
000010 24 f3 75 bb 80 ef a6 bc 4e f3 e9 bd fa 18 e6 bd
       -0.0037528956 -0.020377874 -0.1142336 -0.11235233
000020 61 e8 84 bd 8e f0 dd bc 51 ce dc be 9e 10 f1 bc
       -0.06489635 -0.027092244 -0.43126157 -0.029426869
000030 1f 65 83 bd 19 5b b9 bd 8c 23 12 be 7c 4f 6b bd
       -0.06415772 -0.090505786 -0.14271373 -0.05744885
000040 a4 72 eb bd 01 8d 65 bd 8e 94 f3 be 77 f1 fb bd
       -0.11496475 -0.056042675 -0.47574276 -0.12301915
000050 0e 43 8d bd 6d d4 28 bd ad ec e8 bd 0c c0 15 bd
       -0.06897555 -0.04121821 -0.11373267 -0.036560103
000060 e8 df 93 bd 13 23 30 bd d5 75 5f bc 4c 17 c2 bd
       -0.07220441 -0.0430022 -0.013638933 -0.094771
000070 fb 80 16 bd 75 cb a4 be fe 2b c3 bc 6b f8 83 be
       -0.0367441 -0.32186475 -0.023824688 -0.25775465
000080 14 b1 72 be e5 ba 06 bd 33 5d b3 bc 67 ec d8 bd
       -0.23700362 -0.03289308 -0.021895027 -0.10591965
000090 88 33 c4 bd dc f0 a8 be 26 0c c6 be f7 dc 32 bd
       -0.09580141 -0.3299626 -0.38681144 -0.04366776
0000a0 71 1e b7 bc 0c 53 b9 bd d7 4c 26 bd 18 c6 63 3a
       -0.022353383 -0.09049043 -0.040600624 0.0008688881
0000b0 7b ad 0d be ac 22 21 bd 78 ce f0 bd ca 54 c7 bd
       -0.13835709 -0.039339706 -0.11758131 -0.09732969
0000c0 36 d6 f8 bb 1d 75 c0 be 93 d8 6c 3f 02 a6 96 bd
       -0.0075938953 -0.3758935 0.92517966 -0.07355882
0000d0 9c c3 7f bd 47 df 29 bf 9b 0b d0 bd 00 db 86 bd
       -0.062442407 -0.6635632 -0.101584636 -0.0658474
0000e0 4e 82 92 bd 24 4c 0e bd 9d f3 d4 bc 89 4d b7 bb
       -0.0715376 -0.034740582 -0.02599507 -0.0055939597
0000f0 e8 97 88 bd 50 6d df bd a6 e3 ba be 29 02 27 be
       -0.06669599 -0.109095216 -0.36501807 -0.16309418
000100 02 cb ca bd 7c 06 8f bc 74 53 43 bd 03 88 30 bd
       -0.09902002 -0.017459147 -0.04768701 -0.04309846
000110 b9 a0 b5 bd 97 49 78 bd 14 6d bb bd 0d f7 53 be
       -0.08868546 -0.060617056 -0.091516644 -0.20699711
000120 fa ef 8d bd 2a 96 01 be 82 f6 f8 bd 6a e5 fd be
       -0.069305375 -0.1265494 -0.12156393 -0.49589092
000130 1d 62 b9 bc cf 90 ab bd ee 36 aa bd ff 91 b1 bd
       -0.022629792 -0.083772294 -0.08311258 -0.08670425
000140 59 85 ef bc 37 ae 87 bd 76 af 7a bd 2c b9 e4 bc
       -0.02923839 -0.06625026 -0.06120249 -0.027920328
000150 00 3d b3 bc e8 3a ff bc b8 0d 36 bc 2a 1a 35 be
       -0.021879673 -0.031156018 -0.011111669 -0.17685762
000160 95 34 f3 bd 63 00 88 bd 36 15 70 bc 9c 3c 3a bd
       -0.118752636 -0.06640699 -0.014653495 -0.045467958
000170 b4 cf b9 bb 08 45 c8 bd 45 58 05 be 39 c3 73 bd
       -0.005670512 -0.09778792 -0.13021953 -0.05951235
000180 73 b7 79 39 4a b7 ef bd 63 1d 62 bd 12 a2 5c bc
       0.0002381483 -0.117048815 -0.055203807 -0.013466375
000190 7d 1f 02 bf 15 57 f9 bd de 82 79 be 16 30 99 bd
       -0.508293 -0.12174813 -0.24366328 -0.07479875
0001a0 7f 1d 80 bd 9f 9c e3 3b c0 2f 0f 40 a9 ee df bc
       -0.06255626 0.006946161 2.2372894 -0.027335482
0001b0 3f ad 86 bd da d0 ec bd 63 69 82 bd 2a 03 19 bd
       -0.06576013 -0.11563273 -0.06367757 -0.037356533
0001c0 f6 f1 9f bc b3 db a3 bd 26 ff b6 bd 18 f3 fd bb
       -0.019524556 -0.08000889 -0.089353845 -0.0077499263
0001d0 d6 46 97 bd ed 68 2f bf 9a 75 06 bd 0b 62 c4 bd
       -0.07386558 -0.6851948 -0.032826997 -0.09589013
0001e0 ae 1f cb bd a0 e2 95 bd de b3 fe bc 97 fd eb bd
       -0.09918152 -0.07318616 -0.031091627 -0.11522978
0001f0 71 2d e5 bd 15 94 f9 bd f8 e4 ee bc 09 1e be bd
       -0.11190308 -0.121864475 -0.029161915 -0.092830725
000200 7b ff ed bd 3c c2 06 be 17 94 98 bc e2 51 f3 bd
       -0.11620995 -0.13160032 -0.018625302 -0.11880852
000210 5c 6a 85 bd ba f2 fc bd 3c ae 88 bb df 15 b5 bc
       -0.06514427 -0.12350984 -0.004171161 -0.022105156
000220 4f 5d eb bc b7 e4 79 bd c9 cf 9e bd 25 32 a8 be
       -0.028731016 -0.061009135 -0.077544756 -0.32850757
000230 7b 6e f2 bd 1d e0 8e bb 0e 14 82 bd e1 84 b3 bd
       -0.11837479 -0.0043602125 -0.063514814 -0.08765579
000240 b3 d1 e9 bd 6b c2 df bd 24 41 36 bd 28 02 eb bd
       -0.1141695 -0.10925754 -0.044495717 -0.11475021
000250 5e b3 c9 bc 60 06 d6 bc 93 c5 49 be 08 8a 99 bd
       -0.024621662 -0.026126087 -0.19704275 -0.074970305
000260 b8 6d d3 bd 0b 51 a2 bd 04 b5 c8 bd 24 64 9e bd
       -0.103236616 -0.07925614 -0.09800151 -0.07733944
000270 5e df 96 bd a2 9e a9 bd b1 e0 56 bd b3 ef 25 bd
       -0.07366823 -0.0828221 -0.052460376 -0.040511798
000280 b6 9a d3 bc f4 64 b7 bd eb 54 b2 bc 46 87 a0 bd
       -0.025830608 -0.08954802 -0.021769008 -0.07838301
000290 60 06 d1 bd c0 7f 4f bd 7e 03 c2 bd 9d 67 57 bc
       -0.10206294 -0.05065894 -0.09473322 -0.013147262
0002a0 ef a9 a1 bd 25 55 e5 bd e0 1f 85 3f 04 67 b5 bd
       -0.078937404 -0.11197881 1.0400352 -0.08857539
0002b0 f5 e2 fb 3f 18 d0 f4 bb 26 8e 9f bd 28 81 de bd
       1.9678637 -0.007471096 -0.077907845 -0.10864478
0002c0 cb cc a4 bb 96 33 e1 bd f9 c8 eb bd 5f 6c c1 3b
       -0.005029296 -0.10996167 -0.11512942 0.0059028114
0002d0 a4 0e d0 bd 63 de 33 bd e8 39 79 bd f1 03 7a bd
       -0.101590425 -0.043913256 -0.06084624 -0.061038915
0002e0 a5 ff 9b bc 8a cb e3 bd 2c ee 6d bd d7 58 87 3c
       -0.0190428 -0.11122806 -0.058088467 0.016521854
0002f0 64 fb 07 bd 0d 06 11 bd 2f ee 20 3e 93 4f f2 bc
       -0.03319873 -0.03540616 0.1571586 -0.02957896
000300 6f 2e 6e bc b3 a0 01 be 74 fc e2 bd 03 b1 04 bd
       -0.014537438 -0.12658958 -0.11083308 -0.032395374
000310 42 34 b9 be 7c 9d c8 be 0e b2 57 3c cc 7a b7 bd
       -0.36172682 -0.3918265 0.01316501 -0.089589685
000320 64 40 8a bc 4d e1 c2 bd f3 23 a9 bd 99 a2 d3 bd
       -0.016876407 -0.09515629 -0.0825881 -0.103337474
000330 71 ec 54 bd a0 84 f1 be 1d 0e b2 bd da 00 87 bc
       -0.0519833 -0.47171497 -0.08694098 -0.016479898
000340 41 01 e9 bd b6 d6 87 bd cf 23 a2 bd f3 08 f3 bc
       -0.11377192 -0.0663275 -0.07916986 -0.029667353
000350 66 70 6d bd 1b bf b8 bd f2 c9 04 bd a2 75 d0 bd
       -0.05796852 -0.090208255 -0.032419153 -0.10178687
000360 2b 43 8b be e5 d1 34 bd 2e 32 f8 bd 47 04 9c bd
       -0.27199683 -0.044145484 -0.12118946 -0.07618003
000370 f7 03 65 bd 22 b8 f6 bc 93 6f 08 be 0b cb 46 bd
       -0.055911984 -0.030117098 -0.13323812 -0.04853348
000380 36 a7 8f bd b1 5e 22 bd 8c 2d fc bc 50 40 d7 bd
       -0.07014315 -0.039641086 -0.030783437 -0.105103135
000390 e2 6c 64 bd 7c 62 a2 bc 83 23 1f bd 37 18 53 bd
       -0.0557679 -0.019822352 -0.038852226 -0.051536765
0003a0 de 67 01 be 06 f1 bb bc cf 47 90 bd c6 cd cd bc
       -0.12637278 -0.022942077 -0.070449464 -0.025122534
0003b0 56 c8 8e bd 73 7e cd bd cf 21 44 bd 5c a0 37 bd
       -0.06971805 -0.10033884 -0.047883805 -0.044830665
0003c0 90 0d cf bc 0e 79 02 bd b6 f9 e0 bd 0e dd da bd
       -0.025275022 -0.031853728 -0.109851286 -0.10686694
0003d0 48 de 20 bd f3 c9 cf bc fe 76 83 bd 66 ca 3f bd
       -0.039274484 -0.025364852 -0.0641918 -0.04682388
0003e0 9f 7d 14 bd f8 99 5f bc d1 aa aa bc bd d4 9c bd
       -0.036252614 -0.013647549 -0.020833405 -0.07657764
0003f0 d0 34 ac 3a 37 15 5b bd ac 74 a7 bd 04 f8 bb bd
       0.0013138298 -0.05348703 -0.0817655 -0.091781646

fc3.weight f4 [256, 256]
000000 9b d6 ae bd 0c 92 0f 3c fe 87 8d bd d1 d4 0f bd
       -0.085370265 0.008762848 -0.06910704 -0.035115067
000010 55 ba 8b bd 28 32 c7 bd 72 7c c4 3d 20 f5 f4 3a
       -0.068226494 -0.097263634 0.095940486 0.0018688776
000020 5d b8 b5 bc 69 99 6c bd fb 92 ee 3d ea e2 be 3c
       -0.022182638 -0.05776349 0.11649128 0.02330156
000030 87 22 bb bc 76 26 22 b9 8a ab 72 bc 80 20 9e bd
       -0.022843612 -0.00015463852 -0.014811406 -0.07721043
000040 92 fd 46 bc a1 e0 4b 3d 54 04 9a 3d e4 e0 cb 39
       -0.012145417 0.04977477 0.07520357 0.00038886734
000050 80 b7 26 bd b1 b7 99 bc d7 c6 63 bd ed df 55 bd
       -0.040702343 -0.018764349 -0.05560955 -0.052215505
000060 f1 9e bb bb 03 a1 89 bd 65 d9 5c 3c a4 36 55 3d
       -0.0057257344 -0.06720164 0.013479565 0.052054062
000070 64 dc 69 3c d6 0d 71 3c c4 1e c1 bd dd 6f ed 3d
       0.014273737 0.014712771 -0.09429696 0.11593602
000080 0c 17 84 3d 9f 32 6c 3d c8 c4 26 3d 5a 1f a9 3d
       0.06449708 0.057665464 0.04071501 0.08257933
000090 4a 7c b6 3d a2 d0 ad bc cd 60 e6 3e d0 2d 65 ba
       0.08910425 -0.021217648 0.44995728 -0.00087424833
0000a0 f1 e7 3a bb d2 9d 18 bd 6c 95 51 bd 26 9c 17 bd
       -0.0028519596 -0.037259884 -0.05116789 -0.03701415
0000b0 2b bc 69 bd 8b d2 0a bc e8 11 be bd 31 ae e9 bc
       -0.057064217 -0.008473049 -0.09280759 -0.028525444
0000c0 e3 a0 8e 3c 5f e0 ae bd 0f 66 b3 be a8 ee ab 3c
       0.017410701 -0.08538889 -0.35038802 0.020987824
0000d0 8d 76 96 3d ff 43 9e bc 8b 6b 87 bd d7 3f a9 bd
       0.073468305 -0.019319532 -0.06612309 -0.082641296
0000e0 03 cc d3 bd 06 5f 36 bd 9f 0a 4b bd f0 7f 80 bc
       -0.103416465 -0.044524215 -0.049570676 -0.015686005
0000f0 c2 88 70 3a a2 db 23 bd d4 f7 7e bd a2 ed 25 3d
       0.0009175652 -0.04000438 -0.062248066 0.040509827
000100 85 e2 79 bd 8f 84 f4 3d 7a c4 9f 3c 75 ee 72 3d
       -0.06100704 0.11939346 0.019502867 0.05930944
000110 aa 6d 60 bd 72 bf e3 3b 6c 7e cf 3d 33 7b 07 be
       -0.054792084 0.0069503123 0.10131535 -0.1323059
000120 25 12 c3 bd ab a7 5a 3b 3e f6 b3 bd 00 3e b4 bc
       -0.09524945 0.0033364098 -0.08787201 -0.02200222
000130 41 6d 22 bc c3 e4 30 bc 53 18 5e bd d3 4b d0 bd
       -0.0099137435 -0.010796729 -0.054222416 -0.10170712
000140 97 25 73 bd 8e 98 83 bc a9 81 f6 bc 62 b2 95 bb
       -0.05936202 -0.016063955 -0.030091124 -0.004568384
000150 42 57 b1 3c d9 bf cb bd c7 62 7f 3d a9 47 65 3d
       0.021648053 -0.099487014 0.06235006 0.055976544
000160 39 40 48 3c 2d 3e 43 bc 2a 0c c1 bd 0b 27 77 b9
       0.012222343 -0.011916679 -0.09426148 -0.000235703
000170 2b e7 32 3c 01 6d 7a bb 75 44 88 3a c8 ce bd 3c
       0.010919373 -0.0038211944 0.0010396378 0.02316989
000180 a7 a3 f5 3d c2 96 9a 3c e5 55 d5 bd e0 00 8f bd
       0.11994105 0.018870715 -0.10416774 -0.06982589
000190 75 61 3c 3c c9 44 a9 bc 7f ec e8 3d a7 16 5d 3c
       0.011497845 -0.020662682 0.11373233 0.01349417
0001a0 72 3b 96 bc 66 8e dc bd e9 4b 9a be 76 ab cd bc
       -0.018338893 -0.10769348 -0.3013604 -0.025106173
0001b0 6d d5 76 3e 89 fb 75 3c 50 1c b6 ba 52 09 3e bd
       0.24104853 0.015013584 -0.0013893936 -0.046395607
0001c0 79 d6 a2 bd c8 3e cb bd 47 d5 b6 bc 3b 9d 70 3d
       -0.07951064 -0.09924084 -0.022318495 0.058743697
0001d0 8b bc e7 3d da e9 30 3d 7b 88 7c bd d4 45 c2 3c
       0.113152586 0.04319177 -0.061653595 0.023714937
0001e0 ee d5 04 3d 04 34 a4 bd 1c cb 98 3c 4a e5 a9 3d
       0.03243058 -0.08017734 0.018651538 0.082956865
0001f0 96 52 ac bd 23 c2 c3 bc 00 4e 5d 3c ca 20 0c 3d
       -0.084141895 -0.023896283 0.013507366 0.034210958
000200 db 8b b0 bd 85 c3 bd 3d 3b cc 2e bd ee 65 7b bc
       -0.08620425 0.09265808 -0.042675238 -0.015344126
000210 3f eb b3 bc 97 28 8b bd 93 9b ad bd bf 2c 44 bd
       -0.02196276 -0.06794851 -0.08476939 -0.047894236
000220 c8 4e a4 bd 31 19 1e bd 20 eb a0 bd 91 92 59 3d
       -0.08022839 -0.038598243 -0.078573465 0.053118292
000230 1f df 8a bd 4b f2 d5 bd 98 53 a7 3d 53 a4 75 bd
       -0.06780838 -0.10446604 0.08170241 -0.059971165
000240 91 b5 72 bb da 9d 3e bd ea 65 07 3e b2 d3 33 bb
       -0.0037034492 -0.046537258 0.13222471 -0.0027439413
000250 13 d2 ec 3b 5d 1b 98 3a e0 c9 04 3d 58 61 e3 bc
       0.0072271912 0.0011604835 0.032419086 -0.027756378
000260 f0 f2 d3 bd 6f 3d 43 3c 80 ea c5 bb a9 f0 31 bd
       -0.10349071 0.011916502 -0.0060399175 -0.043442402
000270 08 2c 97 bd d0 d8 59 bd 01 2f 83 bd bd ae ad bb
       -0.07381445 -0.053185284 -0.0640545 -0.0053003714
000280 fb 27 40 bd f9 ac 96 3c 47 68 9c 3c a5 08 54 bd
       -0.04691313 0.018393027 0.019092692 -0.051766057
000290 ca fe f5 bc 84 13 0d 3d 95 55 c4 bd 86 ff d6 bd
       -0.03002872 0.03444244 -0.09586636 -0.10497956
0002a0 4e dd 3c bd bf 11 ec bd 15 b3 1a bd 97 e5 7c bd
       -0.04610949 -0.11526822 -0.037768442 -0.06174239
0002b0 e2 e1 50 be 51 0e da bb b9 b3 20 bd 68 00 68 3d
       -0.20398667 -0.0066545387 -0.039233897 0.056641012
0002c0 54 9b a6 3d 10 28 53 3c 6e 0d 39 bd 39 f4 86 3b
       0.08135095 0.01288797 -0.045178823 0.004118469
0002d0 07 07 71 bd 74 90 a7 bb cb 29 d3 3d 5b 63 b5 bc
       -0.058844592 -0.0051136557 0.10310706 -0.022142103
0002e0 0e 35 2b bb 7f dd 8e bd 80 78 d4 3d bb 10 c1 bd
       -0.0026124152 -0.06975841 0.10374546 -0.09427019
0002f0 a9 f9 54 bd 83 89 84 bd 25 71 8c ba b1 25 c1 3b
       -0.051995907 -0.06471541 -0.0010714872 0.0058943857
000300 c2 27 13 3c e7 c3 14 bd 04 c0 a4 3d 7f bb 82 bd
       0.008981647 -0.03631964 0.080444366 -0.06383418
000310 c9 1f df bc 3c 13 6d 3c 02 35 2d bc d6 6b cb 3b
       -0.027236836 0.014469918 -0.01057172 0.0062079234
000320 9d d8 18 bd c5 27 a7 bd 60 dd 7d bb cf 02 83 bd
       -0.037315954 -0.08161882 -0.0038736686 -0.0639702
000330 b5 9e c0 bd 87 1e bf bd d8 36 49 3d 20 db ba bd
       -0.09405271 -0.093319945 0.04912457 -0.09123826
000340 9f 36 2f bd 8e 78 b5 bb 3d f9 1e 3d fc 9b 16 bd
       -0.0427767 -0.005538053 0.03881191 -0.036769852
000350 c3 83 d0 bd 86 29 cc bd ba 8e 67 bd d6 30 ed ba
       -0.101813816 -0.099688575 -0.0565326 -0.0018096219
000360 d4 1b 54 3d 10 65 00 bd 0c 08 85 3d dc 90 ba 3d
       0.05178435 -0.03134638 0.064956754 0.09109661
000370 08 64 66 bd 71 67 c5 3c e0 18 44 bd 1b b6 5b ba
       -0.05624774 0.024097176 -0.047875285 -0.0008381323
000380 5b 2a 81 3c 2c ba 03 3c 49 85 1c bd 74 43 76 bc
       0.015767267 0.008039992 -0.038213048 -0.0150307305
000390 d1 02 86 3c ca 4c d5 3c c6 76 88 bc 36 2c c1 3b
       0.016358765 0.026037592 -0.016658198 0.005895163
0003a0 24 07 8a 3c b6 eb 3e 3d 06 c9 01 bd 3c 7d 66 bb
       0.016849108 0.04661151 -0.03168585 -0.003516986
0003b0 c1 d1 90 bd d3 6f ae 3d f0 83 d1 3d 23 f2 d8 3b
       -0.070712574 0.085174225 0.10230243 0.006620662
0003c0 ae c6 ff bc b4 fd e0 b9 27 6d d3 3c 64 f4 8d bd
       -0.031222668 -0.00042913633 0.025808884 -0.069313794
0003d0 b3 7c 50 bd fb cd 82 bd ad f1 c4 bd 5b 0a 12 bd
       -0.050900172 -0.06386944 -0.096164085 -0.035654407
0003e0 46 a6 89 3d e6 77 5f bd 2f b6 96 bd 49 60 6b bd
       0.06721167 -0.054557703 -0.073589675 -0.05746487
0003f0 58 e8 1e bd e3 13 86 bc 1a c2 a8 bd 01 6a 8a 3c
       -0.0387958 -0.016366905 -0.08240147 0.01689625

fc3.bias f4 [256]
000000 94 ad a7 bd c2 5e c1 be 4b d2 b3 be 9d a1 e1 be
       -0.08187404 -0.37767607 -0.35121378 -0.44068614
000010 42 40 88 c0 d1 1f 1f be 10 95 ba be de b0 e9 be
       -4.257844 -0.15539481 -0.3644185 -0.4564275
000020 07 66 73 bd 62 04 4e be a8 c3 03 be 7c 34 e2 be
       -0.059423473 -0.2011886 -0.12867606 -0.44180667
000030 be 43 9a be 60 e7 e0 be 1a 33 95 be 0b cf ac be
       -0.30129808 -0.43926525 -0.2914055 -0.3375171
000040 a6 53 02 be 26 01 41 be d5 d1 98 be 81 91 94 be
       -0.12727222 -0.18848094 -0.2984759 -0.2901726
000050 b1 20 0c bf 5b fe 2d bf de 37 5c be b3 82 59 be
       -0.54737383 -0.6796624 -0.21505687 -0.21241264
000060 a9 b9 ad be 9c 5f d2 be 51 2e eb be 58 c7 f2 bd
       -0.3393071 -0.4108857 -0.45933774 -0.11854428
000070 6c 15 09 bf 2c 94 23 bf 16 c8 ef bd 75 a1 ee be
       -0.5354831 -0.6389797 -0.11708085 -0.46607557
000080 c4 ac 20 be 78 49 d3 be 33 bc 5a bf 9f 8d 03 bf
       -0.15690905 -0.4126699 -0.8544342 -0.5138797
000090 c6 e0 89 be 0b 75 b5 3f fa 77 eb be 89 a4 d2 be
       -0.269293 1.4176344 -0.45989972 -0.41141155
0000a0 5a b0 73 be 9f 6c c2 be 13 7d 1d 3f 63 44 d3 be
       -0.23797742 -0.37973496 0.61518973 -0.41263112
0000b0 55 aa 82 bd 7f 0a b6 be 53 19 b8 be a2 dd dc be
       -0.063801445 -0.35554883 -0.3595682 -0.43137842
0000c0 22 d9 82 bf 58 a8 d9 be 01 0d 18 bf 93 f7 95 be
       -1.0222514 -0.4251125 -0.5939484 -0.29290447
0000d0 fd 01 5b bd 65 73 5a be 06 bf d3 be 3d 9a db be
       -0.053468693 -0.21333082 -0.41356677 -0.42891112
0000e0 02 b8 19 bf ca 40 84 be 47 95 f8 be 85 fe 10 bf
       -0.600464 -0.2583068 -0.4855139 -0.56638366
0000f0 64 c1 98 3d e5 d8 02 bb f2 22 2b be 86 e4 50 be
       0.07458761 -0.0019965705 -0.1671255 -0.20399675
000100 c2 34 27 bf 96 10 37 be a7 85 02 be 90 99 d2 be
       -0.6531488 -0.17877421 -0.12746297 -0.41132784
000110 26 73 bb bd a4 b6 52 be b0 5b 5f be 6e 1b dd bd
       -0.09152822 -0.20577484 -0.2181232 -0.107962474
000120 53 9a a6 be 57 1b be be db 54 36 bd 50 91 8a be
       -0.32539615 -0.37130234 -0.04451452 -0.2706399
000130 82 da 35 be f8 95 ad be 51 fa d0 be 71 45 72 be
       -0.17759135 -0.3390348 -0.40815976 -0.23659302
000140 68 e4 79 be 5b 2a 58 be 05 04 a0 bd 86 11 77 be
       -0.24403536 -0.21109907 -0.07813267 -0.24127778
000150 00 69 7a be 89 47 be bd 70 88 92 be ec 63 3e be
       -0.24454117 -0.09290988 -0.2861972 -0.18592805
000160 c7 54 ba be a4 18 c5 be b1 02 07 bf a9 ff 53 3f
       -0.36392805 -0.38495362 -0.5273848 0.8281198
000170 ae 60 48 bd de b4 c4 be a1 06 6a c0 6e 1b 34 bf
       -0.048920326 -0.3841924 -3.6566546 -0.70354354
000180 c1 8c 42 be be c9 9b be b6 c9 4f be e8 1b 8c be
       -0.18999006 -0.30427355 -0.2029179 -0.2736504
000190 7a c1 98 be 6a 56 16 bf 9d 88 e5 be 78 9d d4 be
       -0.2983511 -0.5872561 -0.4483079 -0.4152639
0001a0 08 7a c1 be 37 e6 a4 be 98 18 8a be 6e cb e4 bf
       -0.37788415 -0.3220689 -0.2697189 -1.7874582
0001b0 25 55 89 bf fc 5c 5e be 4a 90 04 bf 42 f7 1a bc
       -1.0729109 -0.21715158 -0.5178267 -0.009458365
0001c0 f8 83 c0 be 45 99 d9 be e3 c7 40 bd de 9a 12 bf
       -0.37600684 -0.42499748 -0.047065627 -0.5726756
0001d0 a2 81 c2 be 10 dc b1 be df a5 c0 be 2e c6 90 bf
       -0.37989527 -0.34738207 -0.3762655 -1.131048
0001e0 7e 7d 2a bf 71 b8 92 be 6c a1 40 be 27 30 81 be
       -0.66597736 -0.28656343 -0.18811578 -0.2523205
0001f0 d9 06 73 be 02 8c c9 be e0 36 6d be 67 9f 0b be
       -0.23733081 -0.3936463 -0.23165464 -0.13635026
000200 f5 75 87 bd 74 34 c6 bd 93 22 29 be dd 9a dc bd
       -0.066142954 -0.096779734 -0.16517095 -0.10771725
000210 3d 3b 24 be b4 54 98 be 37 6d 45 bf e8 54 32 be
       -0.16038223 -0.29752123 -0.77119774 -0.17415202
000220 d1 89 37 be 09 1a 19 be 6c e1 b2 be 97 d6 92 be
       -0.17923667 -0.14951338 -0.34937608 -0.28679344
000230 6a a1 5e be 1a f8 bb bf 6e d1 87 3f 2a 64 29 be
       -0.21741262 -1.468509 1.0610788 -0.16542116
000240 ce 84 ec bd be b1 36 bf ca b1 12 be d9 dd 60 be
       -0.11548768 -0.71364963 -0.14325634 -0.21959628
000250 ea 5f ad be e3 3c c7 be 06 08 ce bd 80 b6 d8 be
       -0.3386224 -0.3891364 -0.10060124 -0.42326736
000260 f3 42 4c be 0e d7 9e bd b1 d6 cd be c5 e4 bf be
       -0.19947414 -0.07755862 -0.4020286 -0.37479225
000270 c0 ac f8 be 0d 0d 2d bf 8d 28 8f be 89 a6 57 be
       -0.48569298 -0.6759804 -0.27960625 -0.21059622
000280 09 16 bf be a5 30 3a be a9 a7 5c be 4d a9 c5 be
       -0.373215 -0.18182619 -0.21548332 -0.3860573
000290 fb 40 c6 be 40 f0 dd be a9 ae 2a be 98 eb 00 bf
       -0.3872145 -0.4334736 -0.1666819 -0.5035949
0002a0 f8 ec 8f be cc da 1e c0 f2 7c 64 be 17 5e 80 be
       -0.2811048 -2.4821043 -0.22313288 -0.25071785
0002b0 7c 8e 59 bd 60 f6 8a be d4 41 af be cb 6f 97 bd
       -0.0531144 -0.27141094 -0.3422991 -0.0739437
0002c0 d4 b3 91 be d2 c5 b0 bd 1c c5 2f bf 87 66 7a bc
       -0.2845751 -0.08631481 -0.6866014 -0.0152832335
0002d0 b4 49 bf be f2 5f 21 bf 56 b5 18 be 97 04 b0 bd
       -0.3736092 -0.63037026 -0.14912924 -0.085946254
0002e0 b0 b0 43 be 25 20 e2 bd 05 50 47 bf f3 86 da bd
       -0.1911037 -0.11041287 -0.77856475 -0.10670271
0002f0 c4 6d 56 be 0b 99 ba bd 1f 93 cb bc 7f 2b fa bc
       -0.2094031 -0.09111222 -0.024850426 -0.030538319
000300 4a 3c 6d bd c9 e9 91 c0 35 19 01 be 96 69 95 be
       -0.057918824 -4.559788 -0.12607272 -0.29182118
000310 8f d2 a1 be e9 7a ec be b1 e1 07 bf 72 9a 04 bf
       -0.31605956 -0.46187523 -0.5307875 -0.51798165
000320 36 f7 20 be bc 27 00 bf a6 d2 c0 be a4 f0 e2 be
       -0.15719303 -0.5006063 -0.37660712 -0.4432422
000330 ed 36 10 bf d3 15 10 bf 2e 8f 9d be e0 e4 0d be
       -0.5633381 -0.562833 -0.307733 -0.1385684
000340 62 99 6e be cf 59 31 bf 8c 75 e1 be a9 d3 3c be
       -0.23300698 -0.6927766 -0.44034994 -0.18440117
000350 cb 56 d4 bd d1 68 ac be 95 96 38 bd 02 7c 9c bd
       -0.10368117 -0.3367372 -0.04506548 -0.0764084
000360 67 20 54 be 8c 4a ad bd 8e 54 97 bd 89 46 a4 bf
       -0.20715486 -0.08461484 -0.073891744 -1.2834026
000370 a3 a2 78 be 19 b5 e3 be 97 89 03 be af 51 26 bf
       -0.24280791 -0.44474104 -0.12845455 -0.6496839
000380 24 62 db be 24 7f ca be 7f 19 21 bf d6 ad 68 c0
       -0.42848313 -0.39550126 -0.6292953 -3.63561
000390 88 52 a4 3f 6e b2 da be 38 d0 83 bd b7 a6 7e be
       1.2837687 -0.42714256 -0.06436199 -0.24868284
0003a0 5e af 3d bf ac 90 b3 bd ba 7c 2d be c2 e9 39 be
       -0.74095714 -0.08767828 -0.1694211 -0.18155578
0003b0 a6 92 c9 be 3b 46 9c be 38 d8 25 bf c0 2f d1 be
       -0.39369696 -0.30522332 -0.6478305 -0.40856743
0003c0 2c 3a 4d be 6a 2e fc bd c0 bd 91 bf 7c 78 54 bf
       -0.20041722 -0.1231354 -1.1386032 -0.82996345
0003d0 9e 97 e5 bd cf 7a 03 bf 22 06 bd be 16 b0 b1 be
       -0.11210559 -0.51359266 -0.3691874 -0.34704655
0003e0 7b e9 77 be ff a4 d9 bd 59 4b bf bc e8 7f 93 be
       -0.2421016 -0.10627174 -0.023351358 -0.28808522
0003f0 b8 da 26 40 91 a2 d3 be b2 9c 30 be fa 71 64 be
       2.6070995 -0.41334966 -0.17247275 -0.22309104

mu.weight f4 [4, 256]
000000 6f e9 ac bd f7 36 56 bd 95 be ba bd 48 56 7a 3e
       -0.084429614 -0.052298512 -0.09118382 0.24446976
000010 23 fb a9 bd 6d 03 0f bd fa e1 ae 3e ab e0 36 3d
       -0.08299854 -0.034915376 0.3415678 0.044647854
000020 1c d2 26 3d fc 86 4c 3d dc 3a b6 3c d8 e1 1c 3e
       0.04072772 0.04993342 0.022244863 0.15320528
000030 76 1d 7d 3e da c0 bc 3d 11 06 4e 3c 22 d4 ca 3d
       0.2471827 0.09216471 0.0125746885 0.099037424
000040 3f e6 c4 bd 8d 81 ea be d7 eb 6a bd a5 28 a8 be
       -0.096142285 -0.45801964 -0.05735382 -0.3284351
000050 05 c6 77 3e 58 25 fe 3d ff 5b 74 39 91 90 28 be
       0.24196632 0.124094665 0.00023303925 -0.16461398
000060 38 ef 5a bc 48 9b 69 3e 09 be 83 3e 60 f1 50 be
       -0.013362698 0.22813141 0.25730923 -0.20404577
000070 73 2f 1f be ef 7e 56 be 2b 45 6e bd a1 b3 92 bd
       -0.15545444 -0.20946859 -0.058171432 -0.07163168
000080 58 97 74 bc 6c bc 94 3e 5a 62 8b 3c cd f9 b5 bd
       -0.014928661 0.29050004 0.017014671 -0.08885536
000090 86 6c 1b ba cd 52 fa 3e d0 cd 0a be 94 0d 46 3d
       -0.0005928952 0.48891297 -0.13555074 0.048352793
0000a0 8f 33 d6 bd db 79 df 3d dc ad 2d 3c 6b 15 9a be
       -0.10459053 0.10911914 0.010600533 -0.30094466
0000b0 98 96 4e bd 9d 93 6a 3d f7 e1 0f 3e 3b 74 d8 3d
       -0.050436586 0.05726968 0.14051042 0.10569044
0000c0 f6 96 07 3f 65 a1 35 3d b7 b5 e8 be 0a 35 61 3d
       0.52964723 0.04434337 -0.45451137 0.054982223
0000d0 8e ff f7 3a 7c b5 89 3e d2 72 2f 3d f3 62 18 3e
       0.0018920766 0.26896274 0.04283411 0.14881496
0000e0 0f 18 1a be 50 a2 53 bd 70 4d 3b 3e 0a 33 2b 3e
       -0.1504824 -0.051668465 0.18291259 0.16718689
0000f0 19 b1 59 3f 81 0d 37 bc cd f4 ad 3d b6 65 16 3e
       0.85035855 -0.011172653 0.08493958 0.14687237
000100 d7 d8 f5 bd 37 39 0e 3e 0f a4 1c 3d fb 55 e4 be
       -0.120042495 0.13889013 0.038242396 -0.44596848
000110 01 51 4c bd 1c e4 59 bc ca e7 f4 be ad 5c 16 3d
       -0.04988194 -0.013299014 -0.4783309 0.036709476
000120 43 b8 11 bd 22 77 ac bd 62 22 85 bd cc 47 6e 3d
       -0.035576116 -0.0842116 -0.065006986 0.05817394
000130 db ef 8c 3d fc 89 0a 3d ca 90 1c 3f 1c d3 f4 3d
       0.06881686 0.033823 0.6115843 0.119543284
000140 49 5d bc bd a1 76 aa bc b7 22 0b bc 8d 5a 4f bd
       -0.0919748 -0.02080852 -0.008492163 -0.050623465
000150 6c a9 98 be fb 3d bf bc 99 e0 13 be 1c b3 28 be
       -0.2981676 -0.023344984 -0.14441146 -0.16474575
000160 ae 5d b7 3e 68 c6 8c be 65 25 03 3f 79 58 4d bd
       0.3581366 -0.27495122 0.51228935 -0.050133202
000170 51 5a c0 bc ff 22 4d 3d df fe 10 bf 61 36 c9 bd
       -0.023480566 0.050082203 -0.566389 -0.09824825
000180 b0 40 36 bb df b5 15 be b4 59 9b 3e 36 22 70 3d
       -0.0027809553 -0.1462016 0.30341876 0.058626376
000190 6f c8 3b 3b 37 8a 2a be 5e 59 98 3e 57 ee e7 bd
       0.0028653403 -0.16654287 0.29755682 -0.113247566
0001a0 53 9b 08 bd af a8 b2 be e4 88 dc bd 93 51 88 b5
       -0.033351254 -0.3489432 -0.10768297 -1.0156531e-06
0001b0 08 5e 95 3e 67 4f 0e be 70 12 1d 3d 1d 72 cd bf
       0.29173303 -0.13897477 0.03834766 -1.605045
0001c0 53 67 89 bd ad 7e 10 3d de a0 4e 3c e0 89 62 bb
       -0.06709161 0.035277057 0.012611596 -0.0034567043
0001d0 7f 47 99 be d3 b7 c3 bd 13 0d 3d 3d 6c 4b b7 bd
       -0.2993736 -0.09556546 0.046155047 -0.089499325
0001e0 f6 5b cb be 59 66 7d 3e 6c 65 b2 3d db a3 1f 3f
       -0.39718598 0.24746074 0.08710751 0.623594
0001f0 37 3b 47 3d c1 5e af bd 31 95 4d bd 68 f5 d4 bd
       0.048640456 -0.08562995 -0.05019111 -0.1039837
000200 7d ee 70 3c 8c e3 45 3d 0e da eb 3d 56 b6 33 bd
       0.014705298 0.04831271 0.115162 -0.04387506
000210 16 25 cf ba 11 b1 48 bc ec 3e 30 be 08 c4 0c bd
       -0.0015803899 -0.012249247 -0.17211503 -0.034366637
000220 40 bc 36 bd a8 29 f5 bd 39 59 a0 bd eb a4 f3 b8
       -0.044613123 -0.11970836 -0.07829518 -0.00011617861
000230 14 47 f0 bd 8b 89 b4 bd f5 23 5f 3d fd 8e 92 3e
       -0.11732307 -0.08815297 0.05447765 0.28624716
000240 1a ee 25 3d 6e 0e ea be 87 41 74 bd 29 b1 87 bd
       0.040510274 -0.45714134 -0.059632804 -0.066255875
000250 d3 f3 63 bc 32 f1 12 3e ff 5a dc 3d 9b 76 82 3e
       -0.013913113 0.14349821 0.10759544 0.25481114
000260 f7 68 94 3d f2 6c a6 bd 88 7c 32 bd 64 e9 b9 bd
       0.07246583 -0.081262484 -0.043575794 -0.09077719
000270 38 84 56 3e 3a 07 1e 3d 00 e4 fd bd e5 a6 fa 3d
       0.20948875 0.03858111 -0.12397003 0.12238864
000280 dd bc 90 3e 97 50 35 bd 0a 54 00 be 93 93 67 be
       0.2826909 -0.04426631 -0.12532058 -0.22614889
000290 b3 e5 42 bd 61 3a 4f bd bc 7f f0 bd 5c e5 a2 3e
       -0.04758234 -0.050592784 -0.117431134 0.31815612
0002a0 5e b7 3a bc 11 05 b9 bd db 0a e9 3b 80 f7 db 3c
       -0.011396257 -0.090341695 0.00711189 0.026851416
0002b0 d6 e8 09 be 44 cf ee 3d 54 a8 88 be 19 45 ab 3b
       -0.13467726 0.116606265 -0.26690924 0.005226743
0002c0 79 4a fe 3c bc 76 40 bd 95 75 78 bd 09 5f ef bc
       0.03104137 -0.046988234 -0.06065901 -0.029220121
0002d0 a8 12 9d 3e 08 86 c6 3d 6e 80 66 3c c2 04 ed bc
       0.30678296 0.09693533 0.014068706 -0.028932933
0002e0 2d e4 7e bd f8 3f 06 bd db 61 3a be 60 4d 02 3d
       -0.062229324 -0.03277585 -0.18201391 0.03181207
0002f0 0d b6 8b 3d 37 49 61 bd 14 25 3c 3d da d4 86 bc
       0.06821833 -0.055001464 0.045933798 -0.016458917
000300 a7 9e db bd 24 a6 5f bf f9 f1 82 3c 2e 1e 71 bd
       -0.1072362 -0.87362885 0.015984522 -0.058866672
000310 0e fc 32 be 20 9a b4 be de 08 39 3c cf bb 1d 3e
       -0.17478964 -0.35273838 0.011293618 0.15403675
000320 3c 4e b1 3d 0a 7f 90 bc 11 c5 41 be 8d 2c 65 bd
       0.086575 -0.017638702 -0.18922831 -0.05595069
000330 c9 26 a2 3e 5e 34 5c 3d 3d 25 51 3d 54 86 60 3c
       0.31670216 0.05376088 0.051060904 0.013703901
000340 75 da 59 bd 33 bd 16 3e af 38 8d be c1 26 45 be
       -0.053186852 0.14720611 -0.2758231 -0.19253065
000350 d7 c8 33 be 34 a5 dd 3c a9 b1 aa 3e 08 7c 9b bd
       -0.17557083 0.027056314 0.3333867 -0.075920165
000360 37 5f b8 bd 69 a0 0f bc df 40 9a bd d7 e3 e6 3d
       -0.09002536 -0.008766272 -0.075319044 0.11273926
000370 e4 d7 41 bd 10 84 73 be d8 73 c4 3d a8 00 5d be
       -0.04732503 -0.23780847 0.09592408 -0.21582282
000380 ed 20 f8 bd a0 73 6f be b6 da 46 3e 20 8c 18 bc
       -0.12115655 -0.23383951 0.19419369 -0.009310752
000390 a3 e5 41 3e 5d 32 82 3e 68 19 56 3c 10 2a dd bd
       0.18935256 0.2542905 0.013067581 -0.107990384
0003a0 e0 71 37 3e ee e0 92 bd 57 2e 0e 3c d9 e2 3e bc
       0.17914534 -0.07171808 0.0086780405 -0.011650764
0003b0 b9 74 11 3e 2c 11 0f 3f 07 17 0a 3f 26 63 f2 3c
       0.14204682 0.5588558 0.53941387 0.029588293
0003c0 7e ea 31 bd eb c8 20 bd 6c 0c dd 3c f7 73 b9 bc
       -0.04343652 -0.03925411 0.026983462 -0.022638304
0003d0 42 a8 b0 3e 37 a2 95 be 0e 0f 8d 3e 11 bf 7c 3e
       0.3450337 -0.29225323 0.27550548 0.24682261
0003e0 e6 d5 aa bd 13 65 cc bd 97 d2 d8 bd 4d 9d fa 3c
       -0.08341579 -0.09980216 -0.10587042 0.030592585
0003f0 e8 7a b3 3d 80 b8 81 3e 18 7f 08 bc 5e 38 44 be
       0.08763677 0.25336075 -0.008331083 -0.19162127

mu.bias f4 [4]
000000 e3 ac b8 be ec 9d 99 be b6 1c c8 bd da 34 a5 3e
       -0.36069402 -0.30003297 -0.09771101 0.32266885
