models/xArm6Reach-v1/model.pt (torch, 547579 bytes, 8 tensors)

fc1.weight f4 [256, 13]
000000 3e 79 a5 bc cc 63 fc bb 09 3a a5 3a 33 4a 94 be
       -0.020199414 -0.0077023264 0.0012605797 -0.2896286
000010 a0 6a dc 3d 5d 1d 06 be d7 7f 87 3d 5a 46 d1 3d
       0.107625246 -0.13097139 0.066161804 0.102184966
000020 5f 4c 56 bf 7b 27 cc bf d9 fa af 3d 79 25 fc bc
       -0.83710283 -1.5949548 0.08592767 -0.030779587
000030 e2 03 03 be 20 01 7b be c1 24 c9 bd 62 e6 3f 3e
       -0.1279445 -0.24512148 -0.098214634 0.18740228
000040 f3 0f b1 3c 01 7a 72 be ae 64 e3 bd 0c ca 3a 3d
       0.02161405 -0.23679353 -0.111031875 0.045602843
000050 a0 47 c6 bd c7 7d d1 3d 1e cd 30 3f 80 a9 20 3e
       -0.0968163 0.10229068 0.69062984 0.15689659
000060 23 ea 83 be a1 d1 f4 bd ee 52 0e 40 0b a8 0e c0
       -0.2576457 -0.11954046 2.2238116 -2.2290065
000070 bb d6 0b 40 ec f6 f0 3e b2 56 31 3f a2 ac d7 bb
       2.184981 0.47063386 0.6927291 -0.0065818587
000080 56 fd d7 bd a7 69 8f 3e c0 e5 fb bf 18 77 c2 3f
       -0.10546367 0.28010294 -1.9679489 1.5192595
000090 12 17 08 c0 88 dc 29 40 c7 bc 0f c0 18 86 68 be
       -2.126408 2.6540852 -2.245897 -0.22707403
0000a0 1c 15 6a 3e a5 db f5 bd cf 39 1a 3e b2 e7 8e 3e
       0.22859615 -0.120047845 0.15061115 0.27911144
0000b0 1d c2 30 be 60 0a 15 3e f4 a9 ab 3e a8 e3 a2 bd
       -0.17261548 0.14554739 0.335281 -0.07953578
0000c0 90 42 4b bd de 80 c8 bd f6 4f 7f 3d ed fe ee 3d
       -0.049624026 -0.097902045 0.062332116 0.11669717
0000d0 b3 5b 2f be af 2d 7c 3e 8a e9 46 bd 19 b5 88 be
       -0.17124824 0.24626802 -0.048562564 -0.26700667
0000e0 8f c5 d2 be 2a 58 48 bc 6c 8b 70 be 7d 54 c3 3b
       -0.4116635 -0.012228051 -0.23490685 0.0059609995
0000f0 60 37 ac be f7 b2 02 40 fb e6 b3 3d b5 1a 3d be
       -0.33635998 2.0421731 0.087842904 -0.18467219
000100 08 c9 23 be 23 4c 58 bf 44 78 7d bd 08 fe 1e 3e
       -0.15994656 -0.84491175 -0.061882272 0.15526593
000110 dc ca a7 bf d6 8a 23 3f c4 eb 4b 3e c8 ea 0b 3e
       -1.3108783 0.6388372 0.19914156 0.1366378
000120 2f ea 10 be b9 00 ea bf 6d 7f a1 3f d0 3b 52 bf
       -0.14151834 -1.828147 1.2617012 -0.82122517
000130 3f b6 4e bf 49 a1 b3 3b c1 27 c9 bf 5a 5d ff 3f
       -0.80746835 0.005481873 -1.5715257 1.9950364
000140 08 a7 a4 3f ba d0 2e c0 8e c9 17 3f b4 32 a7 3e
       1.2863474 -2.7314897 0.59291923 0.3265587
000150 9a 01 ec bd 67 ba 9b 3d e7 2d 41 c0 ef 26 58 40
       -0.11523743 0.07603913 -3.0184267 3.3773763
000160 78 d5 cf 3f ba 6f 1a c0 18 c1 cb bf d0 4f dd 3f
       1.623702 -2.4130692 -1.5918303 1.7289982
000170 f8 b2 cd bf c2 78 f7 3f ef c9 fe bd 1f bb d5 3f
       -1.6070242 1.9333727 -0.124408595 1.669773
000180 f5 e7 82 3d e2 ff 35 3e 65 b7 90 be 12 1b d3 3c
       0.063918985 0.17773393 -0.2826492 0.025769744
000190 19 83 f5 bf 88 bc b3 bf 23 1b d8 3f cb e7 fb bf
       -1.9180633 -1.404191 1.6883281 -1.9680113
0001a0 f6 22 c4 3e 38 a3 31 c0 87 b4 57 40 63 b4 67 bf
       0.38307923 -2.775587 3.3703935 -0.90509623
0001b0 30 97 00 40 56 94 ee 3d e4 fd b0 3d e9 43 30 3b
       2.0092278 0.116493866 0.08642176 0.0026895946
0001c0 3a 4d c7 bf 53 de b1 be 5d ef 37 bf 32 a2 53 40
       -1.5570443 -0.34739932 -0.71849614 3.3067746
0001d0 bc 01 6d c0 b9 f7 5a 3f 67 2a 7d 3d b4 a0 0a c0
       -3.7032309 0.85534245 0.061808016 -2.1660585
0001e0 47 f7 19 bf e1 69 80 3e a5 e3 a1 bd 47 9c 36 3e
       -0.6014294 0.2508078 -0.07904748 0.17833053
0001f0 46 70 17 bc bc 47 0e 40 df a7 5f bf 0a c1 9a bf
       -0.009243077 2.2231283 -0.87365526 -1.2090161
000200 71 ec cc 3f ff ed f6 3f f3 05 02 bd e6 1c a6 3e
       1.6009656 1.9291381 -0.031743955 0.32443923
000210 10 78 8d bd f2 de 1b 3f 4c b3 82 bf 61 66 83 3e
       -0.06907666 0.6088706 -1.0210967 0.25664046
000220 41 36 6f be 29 f8 28 be 75 ab 60 3f dc e3 9b 3e
       -0.2336054 -0.16500916 0.8776162 0.3044728
000230 c3 72 f0 bf f5 4b ff bf 8b d2 1d bf 0d d0 49 c0
       -1.8785022 -1.9945055 -0.6164939 -3.1533234
000240 2b 9a e4 3e c7 01 91 bf 66 cb a6 c0 d2 74 21 3f
       0.4464887 -1.1328667 -5.212329 0.6306888
000250 0d 58 18 be 39 14 cb bd 2a b1 f2 bc 0d 86 a9 bf
       -0.14877339 -0.099159665 -0.029625494 -1.3244034
000260 ec c9 96 3e 5b f4 c1 3f bb 86 dd 3d 8b b7 75 be
       0.2945093 1.5152696 0.108167134 -0.23995797
000270 10 0a 11 be 2d bc bc bd f8 d1 a8 bc 02 ea 93 be
       -0.14163995 -0.09215579 -0.020607933 -0.2888947
000280 bb 61 d0 bd e5 7f 1b 3c 08 01 4c bd d2 e4 52 3d
       -0.101748906 0.009490942 -0.04980567 0.05148775
000290 7c 15 2b 3e 43 f4 84 be 80 b2 7e 3e b0 ca d6 bc
       0.16707414 -0.25967607 0.2487278 -0.026219696
0002a0 76 7a 18 bb e1 81 59 40 6e 4b ce 3f 29 a0 8f bf
       -0.0023266352 3.3985522 1.6116769 -1.1220752
0002b0 86 15 34 c0 de 00 27 40 39 20 b8 3e cb 4f 16 be
       -2.8138137 2.609428 0.35962084 -0.14678876
0002c0 11 82 13 3e cc 7a a6 bf 01 79 a4 3d ec 8e 1d c0
       0.14405085 -1.3006225 0.08030892 -2.4618483
0002d0 e1 3d 0b c0 43 7c b9 3f a7 e7 30 c0 96 83 64 3f
       -2.1756518 1.4491047 -2.764139 0.89263284
0002e0 a6 02 bd 3f 71 e2 e0 3e 70 10 0e c0 57 18 8b bd
       1.4766433 0.4392276 -2.2197533 -0.06791752
0002f0 b5 fd ad be 39 f2 cd bc 47 8a d6 bf d6 4c 1c 40
       -0.33982626 -0.025139915 -1.6760949 2.4421897
000300 b6 4f 0c 40 04 79 1b 3f 69 c1 fb bf fc 8c 46 3e
       2.1923652 0.6073153 -1.9668399 0.19389719
000310 9f 36 21 40 19 ca 0b c0 67 74 55 bf 00 db 1c 40
       2.5189588 -2.18421 -0.8338074 2.4508667
000320 4b 9b 05 3e 8d a8 e4 3c 73 49 eb bd d0 8d b9 c0
       0.13047521 0.027912403 -0.11488619 -5.798561
000330 8e 1a 25 bf 30 11 11 bf 3c 58 47 c0 2e 52 1f 40
       -0.64493644 -0.5666685 -3.1147604 2.4893909
000340 f4 1d 66 3d ae 6f 44 3f 4d 5b 35 be c1 fb 05 3e
       0.05618091 0.7673291 -0.1771061 0.13084318
000350 e1 39 9f 3e b8 da 8b bd 3f 7c 96 3d 71 94 07 be
       0.31098846 -0.06828827 0.07347917 -0.1324022
000360 a1 99 bb be 94 16 9e be 6c 29 8a 3d 3f 37 60 bf
       -0.36640647 -0.308766 0.06746182 -0.875843
000370 9a 17 d3 be 28 ac f8 be 6d 86 a9 bc 4a b3 80 3e
       -0.41228944 -0.48568845 -0.020693982 0.25136787
000380 33 0b 20 3f 18 b4 78 bf f7 b1 45 be 02 b6 a5 be
       0.6251709 -0.971498 -0.1930617 -0.32365423
000390 e0 6d 8a be af 7c 4e 3f 09 70 3e 3f f2 5e 9d 3d
       -0.27036953 0.80659 0.743897 0.07684125
0003a0 e6 87 11 be c1 74 f5 3d 7b e3 dc bf 94 24 ae bf
       -0.14211997 0.1198516 -1.7256922 -1.3604913
0003b0 b9 ef 0e 40 2c 31 80 c0 fd 1f 68 40 20 2a b0 3d
       2.2333815 -4.0060024 3.6269524 0.08601785
0003c0 2a 74 4e be d3 b1 7e 3c ca d2 60 c0 83 e1 84 40
       -0.201615 0.015545326 -3.5128655 4.1525283
0003d0 9e c9 c2 3f bf 22 0b 40 2b 7d 1e c0 02 60 5e be
       1.5217779 2.1739957 -2.4763896 -0.21716312
0003e0 2e 98 0c 3d 89 6f f0 3c db 98 2d 3e ca 93 dd bd
       0.034324817 0.02935006 0.16952841 -0.10819204
0003f0 47 41 cf 3d f8 ad 0d 3c 6b cf ea 3d e9 de 32 3f
       0.101198725 0.008647434 0.11465343 0.69871384

fc1.bias f4 [256]
000000 a6 c5 fa bf 62 e6 20 c0 ce d3 3b c0 69 9a 09 c0
       -1.9591568 -2.5140615 -2.9348025 -2.1500494
000010 7b 8f e3 bf 71 a1 a4 c0 a5 34 b9 bf d2 21 e2 bf
       -1.7778162 -5.144707 -1.4469191 -1.7666571
000020 3a 9a 60 c0 4f 99 8e c0 a3 87 c0 c0 9a 83 4c c0
       -3.5094132 -4.4562144 -6.016557 -3.1955323
000030 0c 7f 9a bf 1a a8 74 3e 0b 00 6c c0 20 6f 30 bf
       -1.2070022 0.2389225 -3.6875026 -0.68919563
000040 50 b9 96 c0 9c d9 1c c0 0d d3 16 c0 f9 e0 10 c0
       -4.710121 -2.4507818 -2.3566315 -2.2637312
000050 b2 8b 66 c0 e0 a4 86 c0 ba 3d dc 3f 77 62 8b c0
       -3.6022763 -4.2076263 1.7206337 -4.3557696
000060 b6 c8 cb 3d 52 ab 5e c0 8f a4 78 c0 60 36 dd bf
       0.09950392 -3.4792066 -3.8850439 -1.7282219
000070 16 26 18 c0 d2 0f ea bf e3 2c 1f c0 28 ef 5f c0
       -2.3773246 -1.8286078 -2.4871147 -3.498972
000080 ce 5e ad c0 b8 12 1a c0 ad 1a 2c bf 47 e6 43 c0
       -5.417823 -2.4073925 -0.67228204 -3.06093
000090 88 8e bf bf 7d 80 a8 c0 a4 2e 29 c0 70 18 9a c0
       -1.4965372 -5.2656846 -2.6434717 -4.815483
0000a0 76 4a a1 bf 4e fa ac c0 10 ca f6 bf 1d c0 24 3e
       -1.2600849 -5.405555 -1.9280415 0.1608891
0000b0 0e d5 97 c0 a2 5e f0 bf 34 97 ad c0 b7 30 27 c0
       -4.7447577 -1.877888 -5.4247074 -2.6123483
0000c0 86 c6 6d c0 e2 f3 97 bf 4e 99 c2 bf 88 3b 1b bf
       -3.715242 -1.1871302 -1.5203035 -0.6063771
0000d0 1c 03 4a c0 89 d2 85 c0 65 c8 b7 c0 70 ad 04 c0
       -3.1564398 -4.18195 -5.743212 -2.0730858
0000e0 92 c4 d6 bf 03 18 79 bc 49 0f 39 c0 7d 71 00 be
       -1.6778738 -0.015203479 -2.891558 -0.12543292
0000f0 4e fb 82 c0 2d 57 1e c0 66 b6 a1 bf 7c 7d 81 c0
       -4.093177 -2.4740708 -1.2633789 -4.046568
000100 88 86 a2 bf d3 24 25 bf e5 63 5a c0 1c 72 61 bf
       -1.2697306 -0.64509314 -3.412347 -0.8806474
000110 73 2c fd bf cb 57 d7 bf 2f 5e 17 c0 f3 ef 8c c0
       -1.977919 -1.6823667 -2.3651235 -4.4042907
000120 6c 3c 74 c0 82 5a 11 c0 12 25 d0 bf 9d f8 89 c0
       -3.8161879 -2.2711492 -1.6261313 -4.3115983
000130 11 94 92 bf 6c 83 d3 bf 15 6f 57 3c 3e 53 49 c0
       -1.1451436 -1.6524482 0.013149043 -3.1457057
000140 a3 78 b2 bf b3 d2 26 c0 80 95 cf 3f 12 f0 a2 3e
       -1.3943065 -2.60661 1.6217499 0.31823784
000150 19 b4 ae bf b1 75 29 c0 41 21 d7 bf f0 4e 7c c0
       -1.3648711 -2.6478083 -1.6807023 -3.942318
000160 7e c5 7b c0 be 1e 1d c0 ba e1 4e c0 85 f1 85 bf
       -3.933929 -2.4550014 -3.2325273 -1.0464331
000170 dd 52 b0 bf 9a ef 91 3d 30 52 16 c0 41 4b 2d c0
       -1.3775288 0.071257785 -2.3487663 -2.7077181
000180 2f a6 6a c0 4b 4b e5 bf 12 03 a1 bf 04 32 26 c0
       -3.666393 -1.7913603 -1.2579062 -2.5968027
000190 39 83 d1 bf 94 d8 ac c0 5b 28 b3 c0 0b 2d 6f bf
       -1.6368171 -5.4014378 -5.598676 -0.93428105
0001a0 e8 bd 8e c0 d6 12 8c bf b7 47 95 c0 da 22 be c0
       -4.460682 -1.0943248 -4.6650043 -5.9417543
0001b0 1c dc 1f c0 0c a9 9f c0 38 ff 8a bf aa af fc bf
       -2.4978094 -4.9893856 -1.0859137 -1.9741108
0001c0 6a ac 03 c0 1c 39 76 c0 07 a8 aa c0 22 15 2e c0
       -2.0573983 -3.8472357 -5.333011 -2.7200398
0001d0 17 1b 0b c0 42 1a 11 c0 90 e5 b3 bf b5 e6 95 c0
       -2.1735284 -2.2672276 -1.4054432 -4.6844125
0001e0 8f b1 9b c0 06 06 aa c0 43 f7 8b 3f 84 25 6a bf
       -4.8654246 -5.3132353 1.0934833 -0.91463494
0001f0 75 47 a3 c0 59 d8 fd bf 9d c5 b5 c0 73 3c 26 c0
       -5.102473 -1.9831649 -5.6803727 -2.5974395
000200 c4 b2 b6 bf ac a7 14 c0 13 d1 10 c0 8d ec 65 3e
       -1.4273305 -2.3227339 -2.2627609 0.22453518
000210 32 fe 3e c0 3b eb 9c 40 5a c2 8c c0 67 46 8e c0
       -2.9842649 4.9037147 -4.3987246 -4.446094
000220 d0 01 7c bf 9e fa 01 c0 5f ab b7 c0 04 38 8d c0
       -0.98440266 -2.0309215 -5.7396693 -4.413088
000230 81 45 29 c0 3d d9 eb bf dc d3 8d 3e 6f 03 2a c0
       -2.6448672 -1.8425671 0.27700698 -2.6564596
000240 a6 02 4f bd 0d a8 8c c0 ec 31 7e c0 07 c0 86 c0
       -0.050539635 -4.395514 -3.971797 -4.210941
000250 ca 69 8e bf 93 a4 51 c0 86 fa 98 c0 1f 03 9f c0
       -1.1126034 -3.2756698 -4.7805815 -4.969131
000260 b2 98 c5 c0 26 07 e9 bf 07 99 63 c0 c1 ba a7 bf
       -6.1748896 -1.8205307 -3.556215 -1.3103868
000270 15 21 47 be 33 07 1f c0 e4 35 3e c0 02 90 8a c0
       -0.19446214 -2.4848144 -2.9720392 -4.330079
000280 df 23 37 c0 dd 25 04 c0 c1 bd 83 bf e4 18 a8 bd
       -2.8615644 -2.064811 -1.0292283 -0.082078725
000290 47 89 8b c0 4d bd f5 bf 60 5d a7 bf e7 a0 91 c0
       -4.3605075 -1.9198395 -1.3075371 -4.5508914
0002a0 1f bc 9e c0 d9 51 c2 bf b6 ed ed bf d9 d3 d1 bf
       -4.960464 -1.5181228 -1.8588169 -1.6392776
0002b0 2b a0 31 bf b9 2e 7e c0 fe 30 11 3f ab 3f e8 bf
       -0.6938502 -3.9716017 0.5671538 -1.814443
0002c0 08 09 22 c0 b4 55 a5 c0 63 db 98 c0 f7 d7 90 c0
       -2.5318012 -5.166712 -4.7767806 -4.526363
0002d0 92 2c 6f c0 b7 59 9e c0 1a bd d9 be e6 83 13 3f
       -3.7370954 -4.9484515 -0.42527086 0.57623136
0002e0 f4 ca a4 c0 7c 40 ef bf ed 0d 69 c0 61 6b 09 c0
       -5.1497746 -1.8691554 -3.641475 -2.147179
0002f0 cc 33 36 c0 e3 25 56 c0 a3 4d 0c c0 60 4c cf c0
       -2.8469114 -3.3460624 -2.1922386 -6.478073
000300 03 25 97 c0 7d f2 a7 bf b4 9d 38 c0 5b d4 5c c0
       -4.723268 -1.3120877 -2.8846254 -3.4504611
000310 d7 dd 6e 3e 72 10 73 c0 4e d0 e3 bf d1 2c 09 c0
       0.23326813 -3.7978787 -1.7797945 -2.1433604
000320 30 29 1f c0 fd 20 1d c0 d7 3c bd be 55 12 49 c0
       -2.486889 -2.4551384 -0.3696048 -3.141744
000330 8c e4 a9 c0 e9 5f cc bf c2 bf 1d c0 41 74 47 c0
       -5.309149 -1.596677 -2.464829 -3.1164706
000340 6e f1 3b 3f 62 a1 3a c0 6b f5 e8 bf e3 f8 cf 3f
       0.7341527 -2.9161 -1.8199896 1.6247829
000350 37 8a a9 3e a6 61 af c0 c2 28 05 c0 67 1f f7 bf
       0.33113262 -5.48067 -2.0806127 -1.9306458
000360 c8 73 f4 bf 79 c9 43 c0 09 aa 05 c0 51 06 a5 c0
       -1.9097834 -3.059172 -2.0885031 -5.157021
000370 bc 38 34 c0 4e 29 22 c0 61 aa b0 bf e1 fe 1b 3f
       -2.8159628 -2.533771 -1.3801996 0.6093579
000380 55 de 9d 3f 37 dd 83 c0 47 8a cf bf 92 d6 e2 3f
       1.2333475 -4.120754 -1.6214074 1.7721732
000390 10 92 51 3e a9 5a ae c0 19 f2 86 c0 21 d6 ed bf
       0.20465875 -5.448567 -4.217053 -1.8580972
0003a0 9d 83 9a c0 59 60 d4 bf 5c 35 32 c0 fe da d3 be
       -4.828566 -1.6591903 -2.7845068 -0.41378015
0003b0 14 70 ac c0 4f 33 b2 c0 d1 28 75 c0 f3 4f 33 c0
       -5.3886814 -5.5687633 -3.8306162 -2.8017547
0003c0 24 7b 8d c0 1e 11 84 c0 40 7e 32 c0 56 1e 06 bf
       -4.421282 -4.1270895 -2.7889557 -0.5239004
0003d0 00 c2 07 c0 3e 77 a6 c0 bb f5 23 c0 9c 46 7e bf
       -2.1212158 -5.202056 -2.5618732 -0.9932649
0003e0 e3 ae c0 bf ec 72 e4 bf db 3b 8b bf 4b 18 02 c0
       -1.5053371 -1.7847571 -1.0877641 -2.0327327
0003f0 52 46 11 c0 3c 27 86 c0 fb 77 94 c0 67 15 9d bf
       -2.269917 -4.1922894 -4.639646 -1.2272156

fc2.weight f4 [256, 256]
000000 e4 dc 16 3d b8 5e 9e bc 8a bc 9e bd 96 f6 2c 3b
       0.03683175 -0.019332275 -0.07750805 0.0026392094
000010 1b a3 cb 3c 15 0d 8a bb 0a cd 7a bd b4 23 9a bb
       0.024858048 -0.0042129853 -0.061230697 -0.004703963
000020 cf 25 06 3d a2 02 ae 3b e8 7f 72 bd a3 f7 1a be
       0.0327509 0.0053103724 -0.059204012 -0.15133528
000030 56 c5 1d bd 2d f3 b3 bc 78 b5 f2 bc 73 56 8d bc
       -0.038518272 -0.021966541 -0.029627547 -0.017253136
000040 55 3f a1 bd 37 18 74 3a 18 ef 6d 3c 35 67 9e bc
       -0.07873408 0.00093114696 0.014522336 -0.019336322
000050 cf 98 11 3d c9 04 3b bd 33 9c 3d bd 3f fb aa bd
       0.03554612 -0.04565886 -0.04629154 -0.08348703
000060 14 9d 8e 3c 23 0f ed bc 88 42 35 bd 3c c8 5e bd
       0.017408885 -0.028937882 -0.044252902 -0.054390177
000070 44 5e 1e 3d b7 5b 74 bc d2 ef 80 bd 8c 56 ff 3c
       0.038664117 -0.014914445 -0.06295742 0.031169198
000080 04 27 f2 3c e7 d7 5a 3c 45 7a 0a be fa 4f f5 bd
       0.02955962 0.013357139 -0.13523205 -0.11978145
000090 07 51 93 3c ab b0 1c bd af 1e 40 bc da ea 87 bb
       0.017982973 -0.03825442 -0.011726066 -0.0041478695
0000a0 8e 2f 0b bd 63 73 2b bd 09 af a1 bd fc d9 73 bd
       -0.0339809 -0.04185809 -0.078947134 -0.059534058
0000b0 86 f4 45 3c 25 7d bb 3c 88 76 b3 bc 47 e2 04 be
       0.012082225 0.022886822 -0.021907106 -0.12976943
0000c0 ed 11 0d bd 61 04 ee 3b 64 21 f6 39 ef a2 af 3b
       -0.034440923 0.0072637056 0.00046945654 0.0053599994
0000d0 29 6f 9f bb ad 60 85 bd bb 9d dd bc cb c5 ad bd
       -0.0048655462 -0.0651258 -0.02705275 -0.08484992
0000e0 05 55 1c bd 15 ab 9f 3c 66 5a bf 3c b4 e3 32 bd
       -0.03816702 0.019490758 0.023358535 -0.043674186
0000f0 b8 8c 93 bd ea 9c f0 3c a3 ae 6d bb 43 69 66 be
       -0.07204574 0.029371697 -0.0036267422 -0.22501092
000100 9f 1b 87 bd c4 3e 9f bc 4f 7f ea bc 32 17 a2 bc
       -0.06597065 -0.019439109 -0.028625159 -0.019786451
000110 df 20 6c bd e8 b7 5f bc bd 03 82 bd db 88 96 bd
       -0.057648536 -0.0136546865 -0.06348369 -0.07350322
000120 08 4c c5 bc b4 64 d8 3a 73 d2 31 bd 80 77 b5 bc
       -0.024084106 0.0016509504 -0.04341359 -0.022151709
000130 e7 df 25 bb 49 a2 36 bb 5a 46 a2 3c e5 11 05 3d
       -0.0025310458 -0.0027867726 0.019808937 0.03248777
000140 9d 79 22 3c a0 ef 75 bd bf f4 46 be 94 55 13 bd
       0.00991669 -0.060042977 -0.194293 -0.035970286
000150 f5 70 6e bd 9f bb db bc aa 34 b2 3c e9 94 21 bc
       -0.058213193 -0.026822863 0.021753628 -0.009862163
000160 2b 4e 12 bc a3 4d 66 bc a5 2f ac 3b c4 38 af bc
       -0.0089297695 -0.014056596 0.005254703 -0.021389373
000170 be 05 9f bd 5f ae 04 be f7 d1 95 bd 56 f7 61 bd
       -0.07764767 -0.12957142 -0.07315438 -0.05516752
000180 a3 09 15 bd 88 65 1a bd 94 2b a5 bd 59 73 4f bd
       -0.036386143 -0.037694484 -0.080649525 -0.050647113
000190 ff fe 9e bd 2f f9 9b 3c 47 a2 1e 3c 03 75 0f be
       -0.077634804 0.019039718 0.009682245 -0.1400948
0001a0 21 16 66 bd 6b cf 11 bc 13 82 08 bd c3 dd 76 bd
       -0.056173448 -0.00889955 -0.033327173 -0.060270082
0001b0 07 00 92 3b e6 f3 07 bc 62 3c ec bc 6f 01 ee 3c
       0.0044555697 -0.008297896 -0.028837387 0.029053418
0001c0 9f 62 9a bc 7d 40 26 3c 2e 40 83 bd 71 87 39 bc
       -0.018845854 0.010147211 -0.06408726 -0.011323796
0001d0 bc ca 05 bd 36 57 b0 3c dc 55 3c bd 37 3b 84 bd
       -0.032664046 0.02152596 -0.04598032 -0.06456607
0001e0 36 d8 81 3c a0 ea 0c 3d 0f 0c 92 bd 14 e2 00 3d
       0.015850168 0.034403443 -0.07131206 0.031465605
0001f0 98 a6 65 3c 6a a3 96 bd a9 cc 66 bd aa 1c c5 bc
       0.01401677 -0.073553875 -0.056347523 -0.02406152
000200 17 4a 05 be ba 48 d8 3c 2a 99 56 bd a1 b9 e6 bc
       -0.13016544 0.026401866 -0.052392162 -0.028164687
000210 5e dc 53 bc 79 cd 26 be 31 3c 14 bc 06 b6 a8 bd
       -0.012930958 -0.16289319 -0.009047554 -0.08237843
000220 1a 1e 18 3d f4 71 e3 bc a8 7b 72 bd 2e 58 a2 bd
       0.037138082 -0.027764298 -0.05919996 -0.07926975
000230 ca d5 9a bd 0f 31 04 bd 20 af 07 be 1a 90 95 bc
       -0.07560308 -0.03227335 -0.13250399 -0.01825719
000240 91 50 14 3d fb 01 1f 3b 1d 69 f2 bc ec 8f 82 bd
       0.036209647 0.0024262655 -0.029591138 -0.06375107
000250 cc a8 04 be ec d5 32 3c d4 68 73 bd 4f 01 7f bc
       -0.12955016 0.010915261 -0.059426144 -0.015564277
000260 35 74 ac bd 11 57 7a bd 9f be 38 bd 31 89 65 bb
       -0.08420602 -0.06111819 -0.045103665 -0.00350244
000270 ac df bc bc 25 2a f0 3c 3a 9f 26 bd f4 68 2a bc
       -0.023055874 0.029316971 -0.040679194 -0.010400999
000280 4c 29 1d 3b 7d 23 d1 3c e2 32 32 bd b1 00 c7 3c
       0.0023980914 0.025529617 -0.043505557 0.024292322
000290 34 59 64 3b b8 a6 1d bc 3c 28 17 bd 30 84 13 3d
       0.0034843208 -0.009622268 -0.036903605 0.036014736
0002a0 c2 20 83 bd c4 c2 0d 3d 24 2f 20 bd 68 73 42 bd
       -0.064027324 0.03460957 -0.039107457 -0.04747334
0002b0 85 7a 4d bd cf 7e 9b bd 6c 8d 77 be 99 f8 06 bd
       -0.05016567 -0.07592546 -0.24175042 -0.032951925
0002c0 70 89 7a bc cf f5 6c bd 00 8d ba bc 91 58 44 bd
       -0.015291557 -0.05785161 -0.022772312 -0.047936026
0002d0 5d 6a 8f bd 20 3e 26 bd 47 c5 b1 bb 4e fe c1 bc
       -0.07002709 -0.04058659 -0.0054251286 -0.023680832
0002e0 8a 12 e7 bc 6c 55 96 bd e0 c9 5c bd f4 15 66 bd
       -0.028207082 -0.07340512 -0.05390346 -0.05617328
0002f0 40 d1 f1 3c 71 3c d2 bc 6b aa fc 3c 99 dd 9e 3c
       0.029518723 -0.025663586 0.03084298 0.019392775
000300 05 a4 84 bd a5 76 af 3c 6b b9 49 bd fb 21 9f bd
       -0.06476597 0.021418879 -0.049249094 -0.07770153
000310 66 09 12 bd b4 e4 1d be b9 0e 4e bd 95 27 9e bd
       -0.035653494 -0.15419275 -0.05030701 -0.077223934
000320 be 1c 59 bc d1 f7 7c bd 13 73 86 bd ee b1 8f bd
       -0.013251482 -0.061759774 -0.065649174 -0.07016359
000330 61 49 24 bd b2 3b 7c bd ab d6 af bd 69 7a f3 3c
       -0.040109042 -0.061580367 -0.085858665 0.029721456
000340 f3 32 a3 bc 78 69 bf bb 37 c6 62 bd ca f7 02 bc
       -0.019921755 -0.0058414303 -0.055364814 -0.007993648
000350 5f 27 5d be e1 6f a6 3c 71 38 b6 bb e6 13 a5 bd
       -0.2159705 0.02031702 -0.0055609276 -0.08060436
000360 92 42 82 bd c3 4d 88 bd 53 2c 88 3c ba 82 e7 bc
       -0.063603535 -0.06655457 0.016622698 -0.028260577
000370 a8 69 77 bc 7d 26 de bc e4 1d 44 bd e7 94 3b bd
       -0.015100874 -0.027117962 -0.04788007 -0.0457963
000380 e1 38 70 be b5 0c 2c bd 2d 62 18 3d 3d d4 cc bc
       -0.23459198 -0.042004306 0.037203003 -0.025003547
000390 b6 05 96 bd 2b e1 0f 3d 5b 7c fe bc 25 9e 08 3c
       -0.07325308 0.035126846 -0.031065157 0.008338486
0003a0 bb b4 7f 3c 2a 1e 26 bc b1 e8 bb 3a ad 7f dc 3c
       0.015607054 -0.010139028 0.0014336315 0.02691635
0003b0 d1 a1 e0 bc a2 f8 b1 bc 02 a3 06 bd a0 99 05 3d
       -0.02742091 -0.021725003 -0.0328703 0.03261721
0003c0 43 1b 98 bd 0d 52 d3 3c c4 d0 01 bc a7 df 13 bd
       -0.07427075 0.02579596 -0.007923309 -0.036101963
0003d0 ac 58 fc 3c e5 d8 84 bd 91 d7 6b bd d2 20 2f be
       0.030804 -0.06486682 -0.057578627 -0.17102364
0003e0 e5 90 3d bd a9 47 95 bc fe e7 84 bd d3 4b 88 bd
       -0.04628076 -0.018222647 -0.064895615 -0.06655087
0003f0 1d 7d a5 bd d4 e2 a2 bd f5 b1 eb bc 41 b4 51 bd
       -0.08080504 -0.0795342 -0.02877138 -0.051197294

fc2.bias f4 [256]
000000 5c b1 6a be 1b 3c 3e be 27 c1 5c be 4b 5e fb bd
       -0.2291922 -0.18577616 -0.21558057 -0.12273844
000010 49 2e 6b bd 80 fd 1b be 94 82 b0 bd 49 f3 14 be
       -0.057417188 -0.15233421 -0.08618656 -0.14545931
000020 bb 73 79 c0 9c 3a fe 39 25 9d 0d 3c 43 ff 07 be
       -3.8976886 0.00048490323 0.008643423 -0.13280968
000030 0e 59 40 bf 9b f6 92 bc a0 94 3a be 99 59 35 bd
       -0.75135887 -0.017939856 -0.18220758 -0.0442749
000040 c2 b7 8a be e4 a6 c8 3c aa 36 9c 3d 09 bb ee bd
       -0.2709332 0.024493642 0.07627614 -0.11656768
000050 7c c9 ab bd 3f 71 07 be 1d 81 1f be ae 4c 92 be
       -0.083880395 -0.13226794 -0.15576597 -0.28574127
000060 c2 cd 5d 3c 28 fb b4 bd 08 76 86 c0 68 da 87 3c
       0.013537826 -0.08836967 -4.201908 0.016583636
000070 46 7c a9 bd 81 02 9c 3c 7a a3 a2 be 32 ff 74 be
       -0.082756564 0.019044163 -0.31765348 -0.23925474
000080 80 7f 78 bd 8a 3f 09 bd 8a 81 44 be 7f 45 2b bc
       -0.06066847 -0.03350786 -0.1919004 -0.010453581
000090 78 4b 6f 3f e8 e1 af 3c b8 46 63 be fd 29 db 3a
       0.9347453 0.021470025 -0.22194946 0.0016720888
0000a0 72 22 a0 bd 54 43 32 bd 65 fa fe bd fd 82 3c bd
       -0.0781907 -0.04352124 -0.12450103 -0.046023358
0000b0 53 e0 11 be e5 32 86 bf 2a 9b 32 bf a2 51 3e be
       -0.14245729 -1.0484282 -0.6976801 -0.18585828
0000c0 f2 8d 50 3c ed 88 16 be e0 6c 79 bd e6 5f 82 be
       0.012729155 -0.1470067 -0.060894847 -0.2546379
0000d0 af 54 76 b9 b7 7d a5 bd ad bd 26 bd 65 3c 35 3c
       -0.00023491935 -0.08080619 -0.040708233 0.011061762
0000e0 9c f8 1f bc 29 ad 99 bd 16 9d 19 bc 89 a4 44 bd
       -0.009763863 -0.07503731 -0.009375831 -0.048008475
0000f0 a2 0b a9 bd 5b 6c d8 bd f5 e2 c1 3c 5d 76 08 be
       -0.08254172 -0.10567542 0.023667792 -0.13326402
000100 0d 33 be bd 7f 2b 7a bb 9e 3d 48 be 15 95 b6 bc
       -0.09287081 -0.0038172898 -0.19554755 -0.022287885
000110 5a e6 5e be 03 de ed bc 90 99 51 bc 69 f2 11 bd
       -0.2176756 -0.029036527 -0.01279296 -0.03563157
000120 c1 ed 95 be 35 eb 19 c0 87 74 50 be 41 cb 46 be
       -0.29282954 -2.404981 -0.20356952 -0.19413473
000130 37 e5 13 be 23 60 ac bd fb 03 fa 3b 03 17 b7 3b
       -0.14442907 -0.08416774 0.007629869 0.00558746
000140 52 5b bd be c5 af 83 be d1 02 cb bd 29 6b 52 bd
       -0.36983734 -0.2572004 -0.099126466 -0.051371727
000150 e1 31 aa 3c bb a6 8b be 16 29 a5 be df 36 d3 bd
       0.020775737 -0.27275643 -0.3225791 -0.103132
000160 d0 69 ce bd 23 1d a2 bd 99 1f 66 be 13 1f 32 be
       -0.10078776 -0.07915714 -0.22472991 -0.17394666
000170 0f 7d 8d bd a8 85 88 bd ca b5 8e bd e0 59 a7 bd
       -0.06908619 -0.06666118 -0.06968267 -0.08171439
000180 65 de 4a be fa 1a 92 be 69 cf fa bd bf c3 58 be
       -0.198114 -0.28536206 -0.122465916 -0.21168421
000190 99 b0 01 be 8c 16 79 bd 7f e4 13 be ed a0 d1 bd
       -0.12665023 -0.060812518 -0.14442633 -0.10235772
0001a0 91 f5 83 bd b3 84 c3 bd ea 61 58 bd fa b1 15 3c
       -0.064433224 -0.09546795 -0.052827753 0.009136671
0001b0 5a 5e 93 3c a2 d9 bb bd b8 20 dc bc d2 18 4a be
       0.017989326 -0.091723695 -0.02687107 -0.1973603
0001c0 3a 48 83 be 21 ea ad bd 9e b9 86 3b 67 f8 13 be
       -0.25641042 -0.08491922 0.0041114828 -0.14450227
0001d0 c6 f9 08 bd de f5 5a be b1 c4 a2 bd 69 b4 b1 bd
       -0.033441328 -0.21382853 -0.07947672 -0.08676989
0001e0 dd 97 a7 be d1 32 d2 bd ae cd ed bd 50 4f e7 bc
       -0.3273305 -0.10263599 -0.11611496 -0.028236061
0001f0 73 2d 28 bd bd 7b cd bd 0d fc 9b 3c a8 68 89 bd
       -0.04105897 -0.10033367 0.019041086 -0.06709415
000200 4e 4b b4 37 bb 69 20 be c2 3d c1 bd f2 84 25 bd
       2.1492739e-05 -0.15665333 -0.094356075 -0.04040999
000210 72 16 2f be 98 89 88 c0 db da 9d bd 1f 75 89 bd
       -0.17098406 -4.266796 -0.07707759 -0.06711792
000220 54 11 76 be da d9 ce be 33 5f ad be c1 f1 7a bd
       -0.24030048 -0.40400583 -0.33861694 -0.06126571
000230 cf fe f3 3c 8f dd 0d be 85 8f 47 be 8e 9a 4c 3c
       0.029784588 -0.13854049 -0.19488342 0.012488021
000240 34 5f 57 be e7 ab 0d be b2 03 02 bd 9d 43 27 bd
       -0.21032411 -0.13835107 -0.031741805 -0.040835965
000250 ab d0 80 be e4 17 85 be 3f 92 ec bc 5f 28 00 be
       -0.251592 -0.2599479 -0.02887833 -0.125154
000260 e8 65 b4 bc 66 a8 f3 3c b3 2a 7b bd 35 fd ab bd
       -0.022021249 0.029743385 -0.061320018 -0.08397905
000270 77 e0 ac 3c 78 71 e6 3c 56 69 ef bd 3a 63 85 bc
       0.021103127 0.028130278 -0.11690013 -0.016282666
000280 34 56 5d bd e7 c6 8e be 8a be a3 bd ad bc 97 bc
       -0.054037288 -0.27886125 -0.07995327 -0.018522585
000290 9c b8 8e bc c2 8d 57 be 7b 00 6a c0 19 de ff 3b
       -0.017422013 -0.2105017 -3.6562793 0.0078084585
0002a0 69 32 32 be 7f bc 98 be 7e 97 81 ba ea fe c8 bc
       -0.17402042 -0.2983131 -0.0009887067 -0.024535615
0002b0 7a 17 b4 bc e6 3e 6e bb 61 f4 ef bd c5 cd 64 bb
       -0.02198385 -0.0036353408 -0.117165335 -0.0034912687
0002c0 b7 57 b0 be 0b 16 28 bf fd 0b 0e bc b1 c7 9e bd
       -0.3444192 -0.65658635 -0.00866985 -0.07752932
0002d0 53 61 34 be 38 f0 05 be 8c 6f 21 be 0b e3 67 bd
       -0.17615251 -0.13079917 -0.15765208 -0.05661301
0002e0 0d 86 55 bd e2 9c a5 be 07 d2 6f 3b 02 4a 58 bd
       -0.052129794 -0.32346255 0.0036593692 -0.052804954
0002f0 08 f2 68 bd f2 34 d2 bc 9f 37 56 be 12 21 ab bd
       -0.056871444 -0.025660012 -0.20919655 -0.08355917
000300 55 84 57 bd ae 27 8f bd 6b ad 09 be 34 6a 3a 3c
       -0.052616436 -0.0698999 -0.1344506 0.01137786
000310 e4 af 4b be 0c 8e ea 3c 76 32 0b c1 95 45 0f be
       -0.19891316 0.028632186 -8.69982 -0.13991387
000320 3d d8 89 be 58 98 69 be 99 ef 8f bd 02 d6 0c bd
       -0.2692279 -0.22812021 -0.070281215 -0.03438378
000330 87 29 4d be f8 66 1a be d2 c5 c4 bc 55 0f 3d be
       -0.20035373 -0.15078342 -0.02402011 -0.1846288
000340 b1 b8 f7 3b 80 2b 76 bd 0f fc 3f bd 65 18 e8 c0
       0.0075598587 -0.06010008 -0.04687124 -7.252978
000350 3f d8 46 be b2 2c 5d 3e 53 d8 67 be 7f b2 a5 bc
       -0.19418429 0.21599081 -0.22641115 -0.020226715
000360 88 1f 20 be b7 4f 1f be 21 2f f6 bd 73 ac 24 be
       -0.15637028 -0.15557753 -0.12020708 -0.16081409
000370 24 bb d0 bd 26 db 4c bd a9 7c 1b 3c 11 0d 63 bd
       -0.10191944 -0.050013684 0.0094901705 -0.055432383
000380 dd c2 57 bb 0f e7 70 be 33 9d ae bd 1a aa 1b bd
       -0.0032922544 -0.23525642 -0.08526077 -0.03800402
000390 94 18 70 bd f6 2f 73 bc 4f 74 20 bd e8 26 8e 3c
       -0.05861719 -0.014842978 -0.03917342 0.017352536
0003a0 19 a3 a7 bc ad 34 16 be a8 2c ba bd 8f 2f 10 be
       -0.020463513 -0.14668532 -0.09090549 -0.14080642
0003b0 19 37 c2 bd 00 22 89 bd 4e 71 76 be 55 4a 18 bd
       -0.09483165 -0.06695938 -0.2406666 -0.037180264
0003c0 1e 04 0a 3c e6 03 ab bd 49 d0 30 be 0f a8 5c c0
       0.008423833 -0.08350353 -0.17266954 -3.4477575
0003d0 6c bb 59 3c 88 4e 26 3c d6 cf f4 bc 9b 95 b3 bd
       0.013289314 0.010150559 -0.02988426 -0.08768769
0003e0 58 db 7e bf 8a d4 97 bd ad 49 22 bd 05 c4 a0 bd
       -0.9955344 -0.074135855 -0.039621044 -0.07849888
0003f0 3b 9d b3 bd 8e b3 4d bd 70 80 a6 3f 78 8c 35 be
       -0.08770224 -0.050220065 1.3007946 -0.17729366

fc3.weight f4 [256, 256]
000000 d0 67 83 bd 2c 78 02 bc 53 4d 9c bc ad ec d3 bb
       -0.06416285 -0.0079632215 -0.01907984 -0.006467423
000010 2c ab 86 3a 37 21 08 3d a5 18 27 3d b7 c0 af bd
       0.0010274402 0.0332348 0.040794987 -0.08581679
000020 8f 6e a5 bb 01 d1 59 bc 05 2e 96 bc 64 75 61 3d
       -0.00504858 -0.013294459 -0.01833249 0.055043593
000030 68 d0 96 bd 2e b4 35 3d 5e c1 6d 3d 82 f4 13 3d
       -0.07363969 0.044361286 0.058045737 0.036121853
000040 a9 75 08 3c 01 e6 82 bd 8e f5 c8 bd 76 2d e5 3c
       0.008328834 -0.06391526 -0.09812461 0.027975779
000050 1c 10 a0 bc 2f cb 19 3d 35 3d 35 3d 26 6a 8f ba
       -0.019538932 0.037547287 0.044247825 -0.0010941669
000060 fd 96 ec bc 61 fa a8 bc 1c 35 de bc 23 27 85 bd
       -0.02888059 -0.020627202 -0.027124934 -0.06501605
000070 9e 9e a8 3d 16 0d d0 bc df df 05 3d cb 1b 04 bc
       0.08233379 -0.025396865 0.032684203 -0.008063267
000080 db 48 ce bc ec 13 f4 38 00 23 d6 bc 66 1c c1 bc
       -0.025181225 0.000116385374 -0.026139736 -0.023573112
000090 f4 7f 3a bd fd d1 27 bd 27 78 02 bd a3 bf c7 bc
       -0.04553218 -0.040971745 -0.031852867 -0.024383372
0000a0 78 d5 e6 3c ca 9a 54 3c db 20 db 3c 6e 33 a7 3d
       0.028177962 0.012976358 0.026749065 0.08164106
0000b0 bd 95 12 3d f9 d8 f2 bc 3c 54 af bd c5 4f 1c bb
       0.035787333 -0.029644476 -0.08560988 -0.0023851257
0000c0 fc 2d 88 bd 12 59 a3 bc c6 b1 1f 3c d9 83 5d 3d
       -0.06649396 -0.019939933 0.009746974 0.054080818
0000d0 1e 10 d4 3c 5f 5b 37 bb de aa 1d 3d 3f 8e a5 bd
       0.025886592 -0.0027978045 0.03849303 -0.08083772
0000e0 6e b4 62 bb da a5 7b bd b8 af 28 3d 3b 88 00 bd
       -0.0034592408 -0.061437465 0.041183203 -0.03137992
0000f0 ec fe 8f 3c 08 5e 83 bd 82 bd 4e bc 7c 31 43 bd
       0.01757761 -0.064144194 -0.012618424 -0.047654614
000100 28 4b 26 bd 47 f1 21 bc 72 ab 0c bc 70 5f d7 bc
       -0.04059902 -0.009884185 -0.008585798 -0.026290625
000110 5f f6 d3 3c 41 86 ff bb 01 b9 72 bd af fd 75 bd
       0.025874315 -0.0077979867 -0.059258465 -0.060056385
000120 75 de 82 bd cb 31 ac b4 c2 e9 ed 3c c0 77 d1 3c
       -0.063900866 -3.2073726e-07 0.029042128 0.025569797
000130 1d 35 89 3c 60 99 9a bc 09 bb 49 3d 62 0a 5b 3c
       0.01674896 -0.018871963 0.049250636 0.013369175
000140 78 bc ab bd db 36 bb bc c3 e2 bb 3d 85 df 6b 3d
       -0.08385557 -0.022853306 0.09174111 0.05758621
000150 91 3d a7 bd 96 79 05 3c 3d 8b 9c bd af 02 74 bc
       -0.0816604 0.008146664 -0.07643745 -0.014893218
000160 9e 8f 58 bd 47 91 81 3a 1e de bb bd 71 4f da 3c
       -0.05287134 0.0009885215 -0.09173225 0.026649209
000170 5c 6e 0d bc 35 8c 0c 3d 5d e0 45 bc e2 3e f7 bc
       -0.008632269 0.0343134 -0.012077418 -0.030181352
000180 78 12 a0 3c bf b2 12 bc 7e bd 66 bc ff 61 15 bc
       0.019540057 -0.008953749 -0.014083264 -0.009117602
000190 5e e0 f4 3c 90 62 0f bd d2 b2 52 bd 51 7b 01 3d
       0.029892143 -0.035006106 -0.051440068 0.031611744
0001a0 11 90 04 bd fa 5d e8 bc 7c 88 4c 3d 71 e9 67 bc
       -0.032363955 -0.028365124 0.04993485 -0.014154778
0001b0 68 a8 92 bd 8a cc 96 3d 8a a5 c6 bc a4 ea e3 3c
       -0.07161027 0.073632315 -0.024248857 0.027821846
0001c0 5d e3 5e 3d 07 68 c9 bd 08 57 18 bd 0a ba c1 3c
       0.05441605 -0.09834295 -0.037192374 0.02364828
0001d0 a2 d5 1d bd 41 0c f7 bb f0 bc 52 3d 20 09 aa 3d
       -0.038533814 -0.0075393026 0.051449716 0.08302522
0001e0 6c 8f a6 bc 46 bc 1a bd 88 6c f3 bc 2f d2 74 3c
       -0.02033206 -0.037777208 -0.029714838 0.01494269
0001f0 01 8b ca bc aa 47 a4 bc 1b 48 9b bd dc 68 9a bc
       -0.024724485 -0.020053703 -0.075821124 -0.018848829
000200 be 9f 4d bc 07 79 40 bc db df 1b 3c 1d 04 bf bd
       -0.012550293 -0.011747605 0.0095138205 -0.093269564
000210 e2 49 80 bd 24 e3 48 bd 6b 45 03 bb 0d ea 57 3d
       -0.06264092 -0.049044743 -0.002003039 0.052713443
000220 de 5e 9e bd 02 bb 58 ba a6 73 0f 3d b6 12 91 3c
       -0.07732938 -0.00082676124 0.0350224 0.017709117
000230 02 fa 72 bd 20 6a b0 3c 8e 31 b8 3c 06 1c 12 bd
       -0.059320457 0.02153498 0.022484567 -0.035671256
000240 38 54 ed bc f1 5f d8 bd ba 2d 85 3c d9 d7 22 3d
       -0.028970823 -0.10565174 0.016257156 0.03975663
000250 9a 23 82 3c 2f 6c ab 3d 45 76 98 3d 62 8d de 3c
       0.015886117 0.08370244 0.07444433 0.027167026
000260 07 d4 18 3d 4d c0 72 bd a6 77 95 bd 78 56 ea bc
       0.03731158 -0.059265424 -0.07298212 -0.028605685
000270 3f cb 0f 3d 12 16 85 bd b4 75 20 bb db f8 75 bb
       0.03510594 -0.0649835 -0.002448422 -0.0037532363
000280 18 85 87 3b 3c a5 bc 3c 34 b9 23 bd 26 80 1f 3d
       0.004135739 0.023028009 -0.039971545 0.03894057
000290 25 72 4e bd 85 7f b4 3d f9 99 83 bb 18 45 02 3c
       -0.050401825 0.08813385 -0.0040161577 0.007951044
0002a0 de 23 6c bc 98 10 96 bd be 63 fa bc 72 58 b3 3c
       -0.014412848 -0.07327384 -0.030565139 0.02189276
0002b0 2b 58 b4 3d 38 57 79 bd b7 7a 47 bc e1 06 27 3d
       0.08805879 -0.060874194 -0.012175254 0.040778045
0002c0 b0 ef 3f 3c 16 46 4f bd 4f 9d 16 bd c1 3a 93 3d
       0.011714861 -0.05060395 -0.036771115 0.07188941
0002d0 87 df 75 bd 4c 3d e0 3c 12 d9 be bc 79 a6 ec bc
       -0.060027625 0.027372979 -0.023296867 -0.028887974
0002e0 4d ad 87 3c 4d 55 0a 3c 9b 0a 90 3c f1 02 f9 bc
       0.016562128 0.008443189 0.017583182 -0.03039691
0002f0 96 9e 63 3d d4 30 03 bd 42 18 f1 3a 21 6e bb 3d
       0.05557116 -0.032028988 0.001839407 0.09151865
000300 d4 f6 ba bb 76 5b 80 3d 0c 4c 0a bd 43 86 1f bd
       -0.0057056937 0.06267445 -0.03376393 -0.0389464
000310 1a 3e 09 bc b5 46 00 3d 20 6f 8e bd cb 72 8a bd
       -0.008376623 0.03131743 -0.06954789 -0.06760176
000320 f6 0d 81 3c 0d bf b4 bd 4a 1c a1 3d fd e0 79 3c
       0.015753727 -0.088255025 0.07866724 0.015251395
000330 41 65 39 3d 68 3b 37 bc 54 52 33 3d b7 62 b9 bc
       0.04526258 -0.011183597 0.043779686 -0.022630079
000340 58 94 61 3d 8f 6e 2d 3d 4a 62 f8 3c ce 43 12 be
       0.055073112 0.042341765 0.030320305 -0.14283678
000350 95 c1 db bc 58 f8 f1 bd 21 e2 57 3a 68 05 43 3d
       -0.026825706 -0.11814946 0.0008235295 0.047612578
000360 0e 01 e3 3c cd 88 e7 bc fd 6e f9 3c 8b ce 6b bc
       0.027710464 -0.028263474 0.030448431 -0.014392505
000370 b7 15 be 3c 7e a0 5f 3d a6 6e 23 bd 60 d1 b0 bc
       0.023203714 0.054596417 -0.039900444 -0.021584213
000380 41 10 11 3d 0e a9 4f bd cb 9e 08 3c 01 95 d3 3c
       0.03541589 -0.050698332 0.00833864 0.025827887
000390 a1 fc 32 bd 53 e1 29 3d 2f 8d 72 bd 9f aa 63 3c
       -0.043697957 0.04147465 -0.059216674 0.01389566
0003a0 c3 9f f1 bc a1 ba d1 bc a3 17 7b 3d 11 25 81 bc
       -0.029495126 -0.025601687 0.06130184 -0.015764745
0003b0 1a ec 2a bc a3 d4 e4 3a bd 36 41 3c d4 83 9c 3d
       -0.010432268 0.001745839 0.011792836 0.07642332
0003c0 8f 98 1a bd 2a a4 87 bc f2 22 8c bd 96 95 0e be
       -0.037743147 -0.016557772 -0.06842603 -0.1392425
0003d0 5d 2c 5a 3d dd 6f 18 3c fa 1b b1 bc d6 92 9f 3c
       0.053264964 0.009304014 -0.021619786 0.019479197
0003e0 52 b1 e2 bd 21 f5 a8 3d 23 b1 ba bc 9d bd 83 3d
       -0.110689774 0.0824988 -0.022789543 0.0643265
0003f0 c8 3f f9 bc a3 c4 9f 3d b8 7f 48 be 25 9f 33 bd
       -0.030425921 0.07801177 -0.19579971 -0.043852944

fc3.bias f4 [256]
000000 2b ca 8d be 0a 70 80 c0 b4 0b f1 be c9 f3 91 be
       -0.27693304 -4.0136766 -0.4707924 -0.28506306
000010 1a ec 71 be 8a 33 bb be d2 f1 aa c0 4f 60 64 be
       -0.23625222 -0.3656276 -5.342019 -0.22302364
000020 a0 fc 16 bd 88 d6 fc be d7 fb 8f be 55 af b7 be
       -0.036862016 -0.49382424 -0.28121826 -0.35875955
000030 08 50 11 bf 2b 0c 9b be 40 f7 56 be 0e b7 d1 be
       -0.56762743 -0.3028272 -0.20992756 -0.40959972
000040 96 8f a1 3f 4d a7 19 c0 e1 5b 66 be fe 81 88 be
       1.2621944 -2.4008362 -0.22495987 -0.26661676
000050 46 7f 86 be f9 0b d6 be 8c 69 ee be b4 00 08 bf
       -0.26268977 -0.4180601 -0.465649 -0.5312607
000060 0f 45 bb be ea 18 71 be 62 59 a1 be f6 8c fa be
       -0.36576125 -0.2354466 -0.31513506 -0.4893567
000070 35 4c 31 bf aa 2b b7 c0 e0 0b c2 bf 2c 32 69 be
       -0.6925691 -5.72408 -1.5159874 -0.22773045
000080 c4 f6 7c bd 0d ad 16 bf 66 c9 da be 71 6f 92 be
       -0.06175877 -0.58857805 -0.4273178 -0.28600648
000090 2c 05 77 bd 85 23 e2 bc f4 4a 37 be f5 20 55 be
       -0.060307667 -0.027604828 -0.17899686 -0.20813353
0000a0 51 04 cc bd 48 02 35 be c3 92 5b bd c0 fa 28 be
       -0.09961761 -0.17676651 -0.05360676 -0.16501904
0000b0 79 76 de be 2d 61 2e be e5 79 d9 be e0 d6 fd bd
       -0.43449762 -0.17029257 -0.4247581 -0.123945
0000c0 71 37 8d be 8c ee 9e be 2e e7 36 bd 0e 45 b7 be
       -0.2758136 -0.31041372 -0.044654064 -0.35794872
0000d0 50 2a 5e be 43 4c 3b be b0 fe fe be 27 fc 44 be
       -0.21695828 -0.1829081 -0.49803686 -0.19236813
0000e0 9d e3 c3 bd f0 8c 35 be a3 7f e9 be cf 91 8f be
       -0.09564898 -0.17729545 -0.45605192 -0.2804093
0000f0 04 29 55 be 52 ca 75 be 31 1f f3 be b2 50 b4 be
       -0.20816427 -0.2400296 -0.47484735 -0.35217816
000100 6e 90 13 be 3c 40 f0 be 35 6b 1f bf 01 5a 40 be
       -0.14410564 -0.46924007 -0.6227296 -0.18784334
000110 53 1e 68 c0 12 ee 40 be f1 50 b4 be fc 27 04 bf
       -3.6268508 -0.18840817 -0.35218003 -0.5162351
000120 1f 76 e0 be 3e bb d2 be cb 54 21 bf 9e f9 d7 be
       -0.4384012 -0.4115848 -0.6302001 -0.4218263
000130 9c 02 1a bf 31 04 b9 be 29 4c 2d bf 24 33 63 be
       -0.6016023 -0.3613601 -0.67694336 -0.22187477
000140 92 1c ac be 91 5c 43 be 42 60 18 bf da 7d 0c be
       -0.33615547 -0.1907828 -0.5952188 -0.13719884
000150 60 57 1e bf b6 ae b2 be d1 e3 21 c0 64 7f 56 be
       -0.61852074 -0.3489892 -2.5295298 -0.20947033
000160 34 92 e7 be 93 89 a0 be 23 eb 48 bd 34 10 54 be
       -0.45228732 -0.3135496 -0.04905237 -0.20709306
000170 2b 51 91 be 41 f4 94 be 58 76 f1 be ae e3 d8 be
       -0.2838224 -0.290926 -0.47160602 -0.42361206
000180 db e1 94 be 7b 6d 01 bf 26 1e 98 be 71 88 a3 be
       -0.29078564 -0.5055768 -0.297105 -0.31940034
000190 e1 19 82 be f2 07 4e be 0c e1 22 be 97 98 03 be
       -0.2541037 -0.20120218 -0.15906161 -0.12851177
0001a0 82 0e 45 be c0 e8 08 bd 6a ca eb 3f de a5 63 be
       -0.19243816 -0.033425093 1.8421147 -0.22231242
0001b0 e9 0b 6d be cd 93 54 be cd 20 38 bd b5 5e 66 be
       -0.23149075 -0.20759507 -0.044953156 -0.22497065
0001c0 75 61 02 bf df a5 b4 be 8a 2e a2 bd af d0 c5 3f
       -0.5092996 -0.352828 -0.07919033 1.545431
0001d0 86 c8 02 40 0e 5c 36 bd a6 15 a8 be f1 5b 5e bd
       2.043489 -0.044521384 -0.32829016 -0.0542869
0001e0 1e c4 06 c0 3a 54 0c bf c9 e8 f6 be 33 c2 80 be
       -2.10572 -0.5481602 -0.48224476 -0.25148162
0001f0 f2 7b 0d be ac f8 a3 be 90 10 66 be 28 3c 76 be
       -0.13816813 -0.3202566 -0.22467256 -0.24046385
000200 a4 b9 34 be b0 3c 6c be 9d 2c b9 be ea 61 b3 be
       -0.17648941 -0.23070025 -0.3616685 -0.3503564
000210 b8 f9 6f 3f 47 18 bd be f8 f3 9d be 40 4b ed bd
       0.93740416 -0.36932585 -0.30850196 -0.115866184
000220 e6 8a 70 be 06 44 2b be 96 7e 79 be 21 61 ac be
       -0.23490486 -0.16725168 -0.24364695 -0.33667853
000230 55 b6 84 bd bf 7f 3b bd 97 2e 9b be 13 cc 26 be
       -0.064800896 -0.045776125 -0.30308983 -0.16288786
000240 7e 51 0c bf 12 de 2d be eb 02 af be b3 7a 23 bf
       -0.5481185 -0.16979244 -0.34181914 -0.638591
000250 aa fc 9f be 70 72 30 be 19 eb 03 40 df 87 5a be
       -0.31247455 -0.17231154 2.0612242 -0.21340893
000260 7c 29 6a be b4 31 42 be 56 e5 b6 be 78 dc de bd
       -0.22867388 -0.18964273 -0.35721844 -0.10881895
000270 01 8e 14 bd 59 65 f4 c0 f4 f9 6b be ba ce 5b be
       -0.036268238 -7.6373715 -0.23044568 -0.21465579
000280 c1 8d 43 be 7d eb 2b bf a7 1e 2d be 07 c3 3d be
       -0.19097044 -0.671562 -0.16906224 -0.18531428
000290 c8 da 8d bd e6 25 67 be 65 de ca be 9e 47 5b be
       -0.06926495 -0.22573051 -0.396228 -0.21414039
0002a0 be 1c 16 bf b8 3b f6 be ee 3d 0c bf c6 af cb bd
       -0.5863761 -0.48092437 -0.54782 -0.099456355
0002b0 ea f5 23 3f 70 57 a4 be bb e3 96 be 6b 96 87 be
       0.6404711 -0.3209796 -0.2947062 -0.26481947
0002c0 30 92 28 bf 76 38 30 bd f4 41 70 be ff 22 a4 be
       -0.65848064 -0.043022595 -0.23462659 -0.3205795
0002d0 23 d6 87 3c 76 2e e7 be 09 dd 10 bf 1d bb 79 bc
       0.0165816 -0.45152634 -0.5658727 -0.015242365
0002e0 83 ca 32 be b1 37 53 bd 0e df bd bc b2 e1 00 bf
       -0.17460065 -0.051566783 -0.02317765 -0.50344384
0002f0 13 ae 86 be 7e 4c 2a be 8a 1c 1b bf a8 9c 94 be
       -0.26304683 -0.16630742 -0.6059042 -0.2902577
000300 6c df 50 be 3b 4d 7f be ab 47 a9 bd e9 34 36 be
       -0.20397729 -0.24931805 -0.08265623 -0.17793621
000310 bd 74 22 bf 4c e9 92 bd c2 a9 e3 be 6c 3f ce be
       -0.6345938 -0.07173404 -0.44465452 -0.40282762
000320 79 9a 9d be da 8c bf be 0f 11 34 be 30 da 1a bf
       -0.30781916 -0.3741215 -0.17584632 -0.6048918
000330 d4 6a 1d be 81 16 9c be cf 06 e2 bd 81 48 f8 bc
       -0.15372783 -0.3048592 -0.11036455 -0.03030801
000340 75 a4 1a 40 5c 0a 45 be 5d 18 9c bd 8a 3a a8 be
       2.4162877 -0.19242233 -0.076218344 -0.32857162
000350 70 03 65 be 5a 1e ec be ad a5 97 be b9 f2 59 bd
       -0.22364593 -0.46116906 -0.29618588 -0.053209994
000360 5b 44 2a bf 1f f7 11 bf 42 7f aa be c4 25 2b be
       -0.6651055 -0.570177 -0.33300215 -0.16713625
000370 cc 3d bd be 9c e0 55 be 05 82 f9 be 10 87 e6 be
       -0.3696121 -0.20886463 -0.4873201 -0.4502492
000380 f2 e2 b3 be 82 8c 84 be 7c 4e 95 be 54 8e 8f c0
       -0.35134083 -0.2588845 -0.2916144 -4.486124
000390 d0 b8 de bf 59 2b d7 bd 49 e1 bd be c6 f5 a3 bb
       -1.740015 -0.10506315 -0.3708594 -0.0050036637
0003a0 0f 92 92 c0 f2 f3 fa be 36 f3 78 be 04 69 23 c0
       -4.5803294 -0.4901424 -0.24311528 -2.5532846
0003b0 19 d7 4f be c6 30 cd be d4 22 cb bf 99 00 0d bf
       -0.20296897 -0.40076274 -1.5870004 -0.55079037
0003c0 7e 07 97 bc c8 13 32 bf 06 6d c1 be 24 1a b8 be
       -0.01843619 -0.69561434 -0.3777849 -0.35957444
0003d0 ab c2 11 bf 75 13 24 be c9 22 64 be 12 6b c5 be
       -0.56937665 -0.16023047 -0.22278894 -0.3855825
0003e0 19 b8 58 be bb a4 22 be 68 a2 35 bf 7a ae af bd
       -0.21163978 -0.15883152 -0.7095094 -0.08578201
0003f0 30 3e d5 3e c9 0b f2 be 1b 5c da 3f 08 a1 a9 be
       0.41649008 -0.47274616 1.7059358 -0.3313067

mu.weight f4 [4, 256]
000000 c7 ff 88 3c 0c c1 a9 be 60 8c b1 bd f6 0c 15 be
       0.016723527 -0.33155096 -0.086693525 -0.14555725
000010 19 77 37 be f2 15 41 3d 15 e2 93 3e 0e 2c 13 be
       -0.17916526 0.04714007 0.28883424 -0.14372274
000020 e6 de 01 bd fa 0a b3 3d ea 33 98 bd 97 74 34 3e
       -0.031706713 0.08742328 -0.07431777 0.176226
000030 3d e5 df bd 2c 2e ad bd 41 54 f4 bd 54 fd 0f 3e
       -0.109323956 -0.08456072 -0.11930133 0.14061481
000040 0d 52 31 be 36 88 a4 bd 8d 1d 57 3e 79 75 df 3e
       -0.17316456 -0.08033793 0.21007366 0.43644312
000050 98 6d 2b be 77 43 42 be 6b 7c f9 bc d2 94 5a 3e
       -0.16741025 -0.18971048 -0.030454835 0.21345833
000060 36 aa a0 bd be 3c 90 bd 5e 39 b9 bd b4 a1 f0 3c
       -0.07844965 -0.07042836 -0.09044145 0.029373981
000070 79 4b e5 bd 2b cf 41 bc 3b 05 d7 3d 52 bd 10 be
       -0.11196036 -0.011829178 0.104990445 -0.1413472
000080 4b ac c9 3c c7 be a5 3d f6 c5 ed bc c9 a0 5b be
       0.024618289 0.080930285 -0.02902506 -0.21448053
000090 47 2f 3b bd bf 04 82 3c ee 70 4b 3c 5e b8 0b 3e
       -0.045699384 0.015871404 0.012417061 0.13644549
0000a0 be 6d bc 3c 51 d5 5d bd d6 6a 00 bd b8 8b 5c 3c
       0.023001548 -0.054158513 -0.031351887 0.013461046
0000b0 91 88 53 3b c8 e5 34 3d a1 c5 58 3e 4d cd 0c 3e
       0.0032277445 0.04416445 0.2116914 0.13750191
0000c0 a0 d5 5b bc ea 5d e0 bd fd f4 9d 3c 5a fe 1b be
       -0.013417631 -0.10955413 0.019281859 -0.15233746
0000d0 7a f6 f3 3e 28 49 94 3d 7f 74 83 3e ea f2 0b 3e
       0.47648984 0.07240516 0.25674817 0.13666883
0000e0 e0 55 58 bc 4b 7f 17 be a8 0c 48 3c 82 1f 9e bd
       -0.013204068 -0.14794652 0.012210049 -0.077208534
0000f0 ac a1 db 3d b2 d9 bd bd 54 83 a7 3d 5e 82 cf bd
       0.10724196 -0.09270038 0.08179346 -0.101322874
000100 6e 04 b4 bd 70 9d 2e 3e 87 56 38 bb d2 b3 1f be
       -0.087899074 0.17052245 -0.0028127746 -0.1559594
000110 00 27 4a 3e 57 23 20 3e 1f ce 84 3d 68 df 0f be
       0.1974144 0.15638481 0.06484627 -0.14050066
000120 b4 96 8c bd 59 06 ad 3e 34 49 be 3e b0 6b 0b 3e
       -0.06864682 0.33793905 0.37165225 0.13615298
000130 14 0c 0b be 52 db a6 be 91 be f5 3d ff e4 0b be
       -0.13578826 -0.32589203 0.11999238 -0.13661574
000140 2f 14 82 3e 34 3e 29 3e 97 61 ba 3d e9 54 26 3c
       0.25406024 0.16527635 0.09100645 0.01015208
000150 00 f5 f4 bc 9a f7 8c bc 68 01 b4 bd f1 5b 01 3e
       -0.029901981 -0.01720791 -0.08789331 0.12632729
000160 d4 a4 9c 3c 55 35 97 3e bf f2 d8 3b e5 a5 0a be
       0.019121565 0.29532877 0.0066207345 -0.13539846
000170 78 1f 09 3d d0 4b 21 3e a3 1a 2f be cc c7 b4 3d
       0.033477277 0.15751576 -0.17100005 0.08827171
000180 e7 a6 dc 3d af 7a 3a bd fe cb e5 b9 86 9b 68 3e
       0.107740216 -0.045527156 -0.0004383027 0.22715577
000190 79 f3 01 be c8 38 aa bd bc 46 3b 3d f2 87 f8 bc
       -0.12690534 -0.083116114 0.045721754 -0.030338261
0001a0 44 79 22 3e 0f 37 3e b9 a8 15 2f 3c 9b 9d 8b 3d
       0.15866572 -0.00018140323 0.010686316 0.0681717
0001b0 12 b5 2d 3d dc 01 90 bd 06 4d ef bd f9 c5 1b 3e
       0.04240901 -0.07031605 -0.11684613 0.1521224
0001c0 db 2e 2b be 25 56 61 3e 11 41 57 bd a2 9e 89 3d
       -0.16717093 0.22005518 -0.052552287 0.0671971
0001d0 7a 77 cb 3b f3 a8 86 bb ac 58 a4 bc fa ef 7b bd
       0.006209311 -0.004109496 -0.020061813 -0.061508156
0001e0 d4 bf 79 3d 24 8d f2 3d 69 e7 df 3d c9 5b 12 3e
       0.060973957 0.11843327 0.1093281 0.14292826
0001f0 4f 3b 2f 3e 67 ac e2 bd 35 db 00 3e b5 05 b4 3d
       0.17112468 -0.110680394 0.12583621 0.08790151
000200 b5 5e 09 be 34 c6 1a be 27 5b 9b 3e f6 b9 a1 3d
       -0.13415034 -0.15114671 0.3034298 0.07896797
000210 31 11 b0 3e d3 dc c1 3e e7 2f 68 3e 82 4c 27 3e
       0.34388116 0.37863788 0.22674523 0.16337779
000220 bd 4a 03 3e 81 eb 6c be b5 3c 04 be 0c 3c c3 3d
       0.12821479 -0.23136713 -0.12913783 0.095329374
000230 18 0e 23 3b 05 99 b5 3c 87 f9 c0 3d 6d 10 22 be
       0.0024880227 0.022167692 0.094225936 -0.15826578
000240 f8 72 90 bd 85 d7 ff 3d ae 4e 7d 3e 9c 08 6e 3d
       -0.070531785 0.12492279 0.24737045 0.05811368
000250 ec ce 88 bd b9 f3 e1 3d 2f b3 19 be a6 a0 1f be
       -0.06680092 0.110328145 -0.1500976 -0.15588626
000260 e3 60 c4 3c 80 ed 00 be 38 82 74 3e 51 1e b8 3d
       0.02397198 -0.12590599 0.238778 0.089901574
000270 09 3d 08 bd 9c 61 00 3e b3 89 56 3e 8f 32 17 3e
       -0.033261333 0.12537235 0.20950966 0.1476538
000280 60 d3 78 be 57 f6 c0 bc c0 0d fe bd 46 99 07 3e
       -0.24299383 -0.023554964 -0.12404966 0.13242063
000290 d7 26 54 3b 2c 27 53 3d 99 69 cb 3c b3 ef b8 bd
       0.0032371783 0.05155103 0.024830626 -0.09030094
0002a0 ba e7 c6 3d 3a 64 82 be 33 db 7e bd b4 7d 35 3d
       0.09712167 -0.25467092 -0.062220763 0.044309333
0002b0 3a db 94 bd 0f 54 87 3d 5b 6f cd bc bd 9a fd bd
       -0.07268377 0.0660783 -0.025077512 -0.123830296
0002c0 8e 97 4f be 7b 3b 08 3e 81 a1 02 3d 5c 8a c7 bd
       -0.20272657 0.1330394 0.031892303 -0.09743187
0002d0 88 ab b1 3e fb 5f a6 be 07 9d 50 3e 25 d5 12 3a
       0.3470118 -0.32495102 0.20372401 0.0005601219
0002e0 07 19 8a bd 1d b9 5f bc d6 75 9e bc bd 94 d0 3d
       -0.06743055 -0.013654974 -0.019343298 0.101846196
0002f0 c5 bf 6b be 1e 1e 3f be 69 d9 71 be 4b 15 ec bd
       -0.23022373 -0.18663833 -0.23618092 -0.11527499
000300 84 14 f4 3d 4d f3 8e 3d 2e 9f 57 bc cb 3b 0e 3e
       0.119179755 0.0698 -0.01316051 0.13889997
000310 ea bc fd 3d a9 e0 03 3c 27 fc b1 3d db 57 3e be
       0.12389548 0.008049169 0.08690672 -0.18588202
000320 ac 24 c5 3d ab 73 63 be 14 c8 7a be c2 54 9c 3e
       0.09626135 -0.22212093 -0.24490386 0.30533415
000330 46 59 80 3d 28 3b e3 3d 45 0f f5 bd 33 c0 61 3c
       0.062670276 0.110952675 -0.11965803 0.013778734
000340 4d 80 e8 bd 15 ab 1f 3e 6f 84 38 3d 5f bc 40 bd
       -0.113525964 0.15592606 0.045048174 -0.047054645
000350 8e fb c3 3d 7d d2 0b be dd 18 0c bd 83 13 c3 3c
       0.095694646 -0.13654514 -0.0342034 0.023813015
000360 f0 7c 10 bc ff 15 9e bc 28 ca 0c 3d 75 8b 1b be
       -0.00881885 -0.019297598 0.03437248 -0.15189917
000370 21 13 11 be a8 0d 1a 3e b4 70 ec 3c ec 5e 97 3e
       -0.14167453 0.15044272 0.028862335 0.29564607
000380 88 c7 25 3e 9d 94 d4 bd 09 c7 0b be ae ac 6f 3f
       0.16189396 -0.10379908 -0.13650145 0.93622863
000390 cf d1 0f 3e 3d b3 5b 3c 3e 21 91 bd 01 b5 e2 bc
       0.1404488 0.013409433 -0.070864186 -0.0276742
0003a0 e2 9b 72 3f 7d b5 24 3e 8c 51 18 be 1f f8 98 3c
       0.9476911 0.16084857 -0.14874858 0.018673
0003b0 f2 ed 1a be 87 f3 74 3e 2d 01 8e 3f b4 0b 5d 3d
       -0.15129831 0.23921023 1.1094109 0.05396624
0003c0 63 44 db bd 68 22 80 be 12 7d e1 3d fd 79 5e 3d
       -0.10706403 -0.2502625 0.110101834 0.054315556
0003d0 1a c4 d7 3d b8 39 c3 3c b6 7d 21 be 41 ef dd bc
       0.1053545 0.023831233 -0.15770611 -0.027091624
0003e0 76 fa 9e bb 3a 14 11 3e 1f a5 83 3d 7c d0 88 3a
       -0.0048516346 0.14167872 0.06427979 0.001043811
0003f0 83 de 4e 3c aa e0 45 3d 01 26 0d 3e 06 0a f2 bd
       0.012626293 0.04830996 0.13784029 -0.11818318

mu.bias f4 [4]
000000 ae 23 89 3e b3 31 52 3e 1f d8 4d 3a 40 aa 32 be
       0.26785034 0.20526771 0.0007852334 -0.17447758
